trained_uttt_model.pth (torch, 160886 bytes, 5 tensors)

fc1.weight f4 [128, 243]
0	0x3c978340	0.018495202
1	0x3e111897	0.14169537
2	0xb99f790a	-0.00030417024
3	0xbdbd1be7	-0.092338376
4	0x3dd320c0	0.10308981
5	0x3cc32718	0.023822352
6	0xbe0802e9	-0.1328236
7	0x3daedf5e	0.08538698
8	0x3dabaed5	0.08382956
9	0x3d34867d	0.04407357
10	0xbd8cabe4	-0.06868723
11	0x3daa2de8	0.08309537
12	0xbd8f7a1d	-0.07005713
13	0xbba81d43	-0.0051304414
14	0x3d7eebf6	0.06223675
15	0x3d0d829f	0.034548398
16	0x3d2680e4	0.040650263
17	0xbd59e512	-0.053196974
18	0xbd06946f	-0.0328564
19	0xbd14c019	-0.03631601
20	0x3d57d2b6	0.052691184
21	0x3d285d65	0.041104693
22	0x3d2b8d05	0.041882534
23	0xbd865ea9	-0.06561024
24	0xbc3d286d	-0.011545283
25	0x3c28107d	0.010257837
26	0xbd1c1d48	-0.038113862
27	0x3d96ba51	0.07359756
28	0xbe1d999c	-0.15390629
29	0x3d4eb021	0.05046094
30	0xbc8217f2	-0.015880559
31	0xbd282de1	-0.04105938
32	0xbc08db70	-0.008353099
33	0xbbf615f6	-0.007509942
34	0xbd881d37	-0.06646197
35	0x3d5194bc	0.051167235
36	0x3d2b31ba	0.04179547
37	0x3d321788	0.043479472
38	0xbde26b44	-0.110556155
39	0xbcec28fc	-0.028828137
40	0x3d3aa673	0.045568895
41	0xbd970624	-0.07374218
42	0xbd5b8b22	-0.053599484
43	0x3e13eac0	0.14445019
44	0xbd7d6ab7	-0.06186935
45	0xbd4ec7e3	-0.050483596
46	0x3dd8eae5	0.105916776
47	0xbd3c0786	-0.045905612
48	0x3d5371a5	0.05162205
49	0xbe2ae465	-0.16688688
50	0x3df8558e	0.12125693
51	0xbe12ed0c	-0.14348239
52	0x3da42274	0.08014384
53	0x3d0c58cb	0.034264367
54	0xbb80ba64	-0.0039284695
55	0xbcf40392	-0.029786859
56	0xbcdb3fe4	-0.026763864
57	0xbdb95112	-0.09048666
58	0x3e059549	0.13045229
59	0xbd320270	-0.043459356
60	0xbd931374	-0.07181445
61	0xbe01756d	-0.1264245
62	0x3e0f1a5b	0.13974898
63	0x3d68b28b	0.056810897
64	0x3c0f493b	0.008745487
65	0xba880ac2	-0.0010379183
66	0x3cfa39cd	0.03054514
67	0x3dc4b2ca	0.09604414
68	0xbd95539e	-0.07291339
69	0x3d8850fc	0.066560715
70	0x3e23b8f2	0.1598852
71	0xbdf65a38	-0.120289266
72	0xbd1dc20f	-0.038515147
73	0x3e058a55	0.1304105
74	0xbe3e8ca7	-0.18608342
75	0xbdd4138c	-0.10355291
76	0x3a2b852a	0.00065429753
77	0x3e06ff56	0.1318334
78	0xbb08c786	-0.0020870878
79	0x3e384337	0.1799439
80	0xbe646c92	-0.22307041
81	0xbbaccb21	-0.0052732383
82	0xbd13c96b	-0.03608076
83	0x3ca3a4ef	0.019976107
84	0xbd907edb	-0.07055446
85	0x3d902caa	0.07039769
86	0x3dca3087	0.09872537
87	0x3da0a1ef	0.078433864
88	0xbe38605c	-0.18005508
89	0x3d785920	0.06063187
90	0x3d130560	0.035893798
91	0x3e047fe4	0.12939411
92	0xbdba6f29	-0.09103233
93	0xbd36866c	-0.04456179
94	0x3cfc155d	0.030771906
95	0xbd43fc48	-0.047848016
96	0xbe06964e	-0.13143274
97	0x3df8ae04	0.12142566
98	0xbd5a7057	-0.053329792
99	0x3e040d16	0.12895617
100	0x3c897e5f	0.016783891
101	0xbdb44b5c	-0.08803436
102	0x3d71b764	0.059012786
103	0x3dfa0d20	0.12209535
104	0xbd1f2c13	-0.03886039
105	0x3db94127	0.0904563
106	0x3b8d2cbd	0.0043083117
107	0xbd281b63	-0.041041743
108	0x3d5351bf	0.05159163
109	0x3deefeab	0.11669668
110	0xbde58a58	-0.112080276
111	0xbd2d7e36	-0.042356692
112	0xbe15e8a7	-0.14639531
113	0x3df6ada8	0.12044841
114	0xbe685367	-0.22688065
115	0x3da14a12	0.07875456
116	0x3defb12b	0.11703714
117	0xbdb858a2	-0.0900128
118	0x3d79efb2	0.061019607
119	0x3d3ec7f8	0.046577424
120	0x3d389336	0.045062266
121	0x3de0b750	0.10972464
122	0xbdf98a3e	-0.12184571
123	0xbba1cd8c	-0.004937833
124	0xbd47e8a7	-0.04880586
125	0xbd854ef4	-0.065092
126	0x3cdc0778	0.02685903
127	0xbe1f1652	-0.15535858
128	0x3d4c0a29	0.049814377
129	0xbd368a6f	-0.044565614
130	0x3d43ce6b	0.047804277
131	0xbd23f36e	-0.040027075
132	0xbbcf8242	-0.0063326666
133	0x3dd72ace	0.10506211
134	0xbd4ee8ca	-0.050514974
135	0xbac600a0	-0.0015106387
136	0xbdb6d9d9	-0.0892827
137	0xbb95d479	-0.004572448
138	0xbce8d40e	-0.028421428
139	0xba8e0404	-0.0010834937
140	0xbdbda718	-0.09260386
141	0x3dc07453	0.09397187
142	0xbdbc86ec	-0.09205422
143	0x3d1bed72	0.038068242
144	0x3b491096	0.0030680052
145	0xbd1d815a	-0.038453437
146	0x3d50f9ba	0.051019408
147	0x3d4783c9	0.048709664
148	0xbdc8e7ca	-0.09809835
149	0x3d794135	0.060853202
150	0xbd736c4c	-0.05942945
151	0xbc0c6fe0	-0.008571595
152	0x3d4cf5e5	0.05003919
153	0x3c5e4f79	0.013568752
154	0x3cb7de6c	0.022444926
155	0xbd8911e0	-0.066928625
156	0xbdb9fee5	-0.090818204
157	0x3dc334b6	0.09531538
158	0xbd47fa52	-0.04882271
159	0x3deadbca	0.11467703
160	0xbe345f27	-0.17614423
161	0xbc2a2514	-0.010384817
162	0x3e180bc3	0.14848237
163	0x3d06fec2	0.0329578
164	0xbe201796	-0.15633997
165	0x3d25579e	0.04036676
166	0xbd771268	-0.060320288
167	0xbc3e5f1f	-0.011619358
168	0x3c40a097	0.011757038
169	0xbdda2ea6	-0.10653429
170	0x3c8cb011	0.017173799
171	0xbd823bcd	-0.06359062
172	0x3e16f47f	0.14741705
173	0x3cd76b3d	0.026296252
174	0xbdf97c61	-0.121819265
175	0xbd0f27c2	-0.034950025
176	0x3dbc867b	0.092053376
177	0x3b3f5ede	0.0029200832
178	0xbd75dfbd	-0.060027827
179	0x3d237a5b	0.03991161
180	0x3e043224	0.12909752
181	0xbe33b993	-0.1755126
182	0x3b0266a7	0.0019897611
183	0x3dca12ef	0.098668925
184	0xbdc2cc1a	-0.095115855
185	0xbccaebf4	-0.024770714
186	0xbd4bbe87	-0.049742248
187	0xbcbb4870	-0.02286169
188	0x3b83fce4	0.0040279496
189	0xbd956253	-0.072941445
190	0x3bd129ec	0.0063831713
191	0x3d826850	0.06367552
192	0xbcf03630	-0.029322714
193	0x3d781bd2	0.060573407
194	0xbd89a36b	-0.06720623
195	0xbdd9a620	-0.10627389
196	0x3c0313e8	0.0080003515
197	0x3d5c4940	0.053780794
198	0xbc61fc2d	-0.013793034
199	0xbdfc9f8d	-0.123351194
200	0x3d81de53	0.06341233
201	0x3cc06b73	0.023488736
202	0xbd3cbf1e	-0.0460807
203	0x3c1109db	0.008852447
204	0xbde18a9f	-0.11012768
205	0xbdd5ea72	-0.104451075
206	0x3d8268b2	0.06367625
207	0xbd2a48b9	-0.04157326
208	0x3e4717ca	0.19442669
209	0xbd2156df	-0.039389487
210	0xbc89c0a6	-0.016815495
211	0x3db496e7	0.08817845
212	0xbc4f506a	-0.01265345
213	0xbd938420	-0.07202935
214	0x3d9fd11a	0.07803555
215	0xbdaa9efe	-0.083311066
216	0xbe31a763	-0.17349009
217	0xbca15e13	-0.019698178
218	0x3de31ba6	0.11089258
219	0xbc241e12	-0.010016935
220	0xbda3c9b3	-0.079974554
221	0x3d9d1d36	0.07671587
222	0x3cfb755a	0.030695606
223	0xbe1e84f7	-0.1548041
224	0x3d1ed8aa	0.038780846
225	0x3d9ee934	0.07759324
226	0xbd35e65f	-0.044409152
227	0xbcb5b57e	-0.022181269
228	0x3d979ed1	0.07403339
229	0xbd2b4c4a	-0.0418208
230	0xbd0a1ffe	-0.033721916
231	0xbcda3bfc	-0.02663993
232	0xbdd0cc21	-0.101951845
233	0x3d99e5d2	0.07514538
234	0x3cdec924	0.02719552
235	0x3d89ad22	0.067224756
236	0xbc996e13	-0.018729245
237	0xbdd7c095	-0.10534779
238	0x3db38ee6	0.0876749
239	0xbbeb261f	-0.0071761752
240	0xbd34aa93	-0.044107985
241	0x3d3c359d	0.045949567
242	0x3d18d7d0	0.03731519
243	0xbc53bc02	-0.0129232425
244	0x3d8c1c5c	0.068413466
245	0x3cd810f3	0.02637527
246	0xbdb06393	-0.08612742
247	0x3dc0260e	0.09382258
248	0xbced5c96	-0.028974812
249	0x3d0d41ef	0.034486707
250	0x3d2f907d	0.042862404
251	0x3b494491	0.0030711035
252	0xbd6741a4	-0.056459084
253	0x3d8353b1	0.06412447
254	0xbd2f3ce0	-0.042782664
255	0xbcf4c6d8	-0.029879972

fc1.bias f4 [128]
0	0xbd77b3f0	-0.060474336
1	0x3bbf679d	0.005841209
2	0xbc95689a	-0.018238354
3	0xbd7b64e1	-0.061375502
4	0xbd4662f4	-0.048434213
5	0xbcfa0e03	-0.03052426
6	0x3d03af3b	0.032149535
7	0xb9a64fad	-0.0003172135
8	0xbd5f5905	-0.054528255
9	0x3d776b0e	0.06040483
10	0xbd7424bf	-0.059605356
11	0x3d7c5886	0.06160786
12	0xbc8bfec2	-0.017089251
13	0xbd526963	-0.051370036
14	0x3c55f8d1	0.013059811
15	0xbd078d5e	-0.033093803
16	0x3c83d030	0.016090482
17	0x3d4a9ab0	0.049463928
18	0x3d3cb3a9	0.046069775
19	0x3c8c7f52	0.017150555
20	0xbca771a2	-0.020439927
21	0xbcd33690	-0.025782853
22	0x3d0cce77	0.034376588
23	0x3d71e2c5	0.059054155
24	0x3c8e6337	0.017381294
25	0x3b00d600	0.0019658804
26	0x3cbb65c0	0.022875667
27	0xbd693f64	-0.05694522
28	0x3d7e4a08	0.06208232
29	0xbd8fa014	-0.07012954
30	0x3b40214f	0.0029316728
31	0xbc7b7d9a	-0.01534977
32	0xbca74a6f	-0.020421235
33	0xbb2a33f9	-0.002597092
34	0xbd0d7316	-0.034533583
35	0x3d8c5fd7	0.068542175
36	0xbd4c6c92	-0.04990823
37	0x3c3d79e8	0.011564709
38	0x3d4d7d00	0.050168037
39	0xbc84dcb4	-0.01621852
40	0xbc258b17	-0.010103962
41	0xbc719781	-0.014745594
42	0x39ea15ba	0.00044648146
43	0x3c052a4a	0.008127758
44	0xbd550e42	-0.05201555
45	0xbcf3838e	-0.029725816
46	0x3ccc5425	0.024942467
47	0xbc9909d0	-0.018681437
48	0x3d436b17	0.04770955
49	0x3d72de1e	0.05929386
50	0x3c6d3870	0.014478788
51	0xbc329aa0	-0.010901123
52	0xbd52d851	-0.051475827
53	0x3d4c5a32	0.049890704
54	0x3d1d8e78	0.038465947
55	0x3d19aed9	0.037520263
56	0xbcfa56f8	-0.030559048
57	0x3d7e84be	0.06213831
58	0xbd26aeb4	-0.040693954
59	0xbd7bea17	-0.061502542
60	0x3cf45beb	0.029828986
61	0x3d08f379	0.03343532
62	0xbab887eb	-0.0014078593
63	0x3d6127c5	0.054969568
64	0x3a9fd207	0.001219333
65	0x3a6ff45c	0.0009153539
66	0xbc9dacf4	-0.01924751
67	0x3cb1e49b	0.021715453
68	0x3d077f26	0.033080243
69	0x3d7cb122	0.061692365
70	0xbd20207d	-0.039093483
71	0x3d080f7a	0.033217885
72	0xbc0698c8	-0.008215137
73	0xbc2eabf5	-0.010661115
74	0xbd4442d3	-0.04791529
75	0x3c08d606	0.008351808
76	0xbd63972b	-0.055564087
77	0x3cc86038	0.024459943
78	0x3d621bda	0.055202343
79	0x3cfd7254	0.030938305
80	0xbd726452	-0.059177704
81	0xbd503f93	-0.05084188
82	0xbd619c2f	-0.05508059
83	0xbd74c769	-0.059760485
84	0xbd18fc00	-0.0373497
85	0x3d0c477c	0.03424786
86	0x3cb7f24d	0.022454405
87	0xbd54eae7	-0.051981833
88	0x3c861b9d	0.016370589
89	0x3ac44362	0.0014973695
90	0x3bf0bc59	0.0073466715
91	0x3d025f19	0.031828973
92	0x3b61cbbc	0.003445371
93	0x3d41d776	0.04732462
94	0xbd174624	-0.036932126
95	0x3d5f6944	0.05454375
96	0x3be3394b	0.00693432
97	0xbb0e1938	-0.0021682512
98	0xbc3dad0e	-0.011576904
99	0xbb44ab1a	-0.003000921
100	0x3ce6bd44	0.02816642
101	0xbd38d46e	-0.045124464
102	0xbc980a62	-0.018559638
103	0xb98063ab	-0.0002448832
104	0xbc98248b	-0.018572113
105	0xbd875f96	-0.066100284
106	0xbd7e1dd0	-0.06204015
107	0x3d1b65ea	0.03793899
108	0xbcfed338	-0.031106576
109	0xbd2eb680	-0.042654514
110	0x3b04d5cd	0.0020269037
111	0xbd16e321	-0.0368377
112	0xbd4ff71e	-0.05077278
113	0xbcf70392	-0.03015307
114	0x3d82c8e0	0.0638597
115	0x3d67633a	0.056491114
116	0x3d280101	0.041016582
117	0xbcfaad76	-0.03060029
118	0xbd89faf2	-0.06737317
119	0xbd58f6fa	-0.05296991
120	0x3d81b33c	0.06333014
121	0x3d87d44e	0.06632291
122	0x3c144cc1	0.009051503
123	0x3d566d2f	0.05235022
124	0xbd21092c	-0.039315388
125	0x3ca44a09	0.020054834
126	0x3c90bdac	0.017668568
127	0x3d4c339b	0.049853902

fc2.weight f4 [64, 128]
0	0xbddd1002	-0.10794069
1	0xbe30fdb8	-0.17284286
2	0x3e167ded	0.14696474
3	0x3e355f0f	0.17712043
4	0xbdb5eb5f	-0.08882784
5	0xbe239e45	-0.15978344
6	0x3d64a984	0.055825725
7	0xbdc94a2e	-0.09828602
8	0xbd4f4180	-0.050599575
9	0xbc855afb	-0.016278734
10	0xbd7bb6f0	-0.06145376
11	0xbe202c8d	-0.15641995
12	0x3e23fff5	0.16015609
13	0xbe06b22a	-0.13153902
14	0xbd2af7bb	-0.04174016
15	0xbde8ef60	-0.11373782
16	0x3d8cc8ed	0.06874261
17	0x3e4dfb1a	0.20115319
18	0x3d76336c	0.060107633
19	0x3cd30149	0.025757449
20	0x3b95d69f	0.004572704
21	0xbac78e7f	-0.0015224962
22	0x3ce01389	0.027353065
23	0x3dd0b512	0.101907864
24	0x3cc476d9	0.023982452
25	0x3e005874	0.12533742
26	0xbdeb63d6	-0.114936516
27	0x3d6bd64c	0.057577416
28	0xbdc2b00c	-0.095062345
29	0x3e474d2f	0.19463037
30	0x3dd07553	0.10178628
31	0xbe4188e6	-0.18899879
32	0xbdd1d1fc	-0.102451295
33	0x3d98d447	0.07462364
34	0xbd551c52	-0.05202896
35	0x3dd6e1e7	0.10492306
36	0x3d515f17	0.051116075
37	0x3d9f2bee	0.07772051
38	0xbe2691f0	-0.16266608
39	0xbd97345b	-0.07383033
40	0xbe0f8d13	-0.1401866
41	0x3df29693	0.11845126
42	0x3de4c974	0.11171237
43	0x3cafc35f	0.021455465
44	0xbc60cdd3	-0.013720947
45	0xbdfcc4ea	-0.12342246
46	0x3ccd6fc1	0.025077702
47	0x3dc9422a	0.09827073
48	0xbd9539a1	-0.072863825
49	0xbe09d766	-0.13461074
50	0xbd9e3295	-0.077244915
51	0xbcda28cb	-0.02663078
52	0x3dd026b1	0.1016363
53	0x3c8ada09	0.01694967
54	0x3d58a2f7	0.05288979
55	0xbd913c1f	-0.07091545
56	0x3e445dfc	0.19176477
57	0xbd819035	-0.063263334
58	0x3e2eb4bb	0.1706113
59	0x3d8f9918	0.07011622
60	0x3da64a2f	0.08119618
61	0x3d27434e	0.04083567
62	0x3dca2d6c	0.09871945
63	0x3ddd7496	0.10813253
64	0x3d757b59	0.059932087
65	0x3ba86f86	0.0051402478
66	0xbd7e35a0	-0.06206286
67	0xbe32cfa9	-0.17462029
68	0xbd41b607	-0.047292735
69	0xbd1c8281	-0.038210396
70	0x3d51ea93	0.051249098
71	0x3defc52c	0.117075294
72	0x3de2714c	0.11056766
73	0xbe1322b9	-0.14368714
74	0xbc18cd5d	-0.009326306
75	0xbcc0580f	-0.02347949
76	0x3dcca02a	0.09991486
77	0xbdb1feff	-0.08691215
78	0x3dfed2d7	0.12442558
79	0xbd44eb64	-0.04807605
80	0xbdbc14e3	-0.09183671
81	0x3c0c7d7f	0.0085748425
82	0xbdd179d2	-0.102283135
83	0x3d7676fe	0.060172074
84	0xbdf5a733	-0.11994781
85	0xbdc0f9f1	-0.094226725
86	0xbdb9e26e	-0.09076391
87	0x3d22846b	0.039677065
88	0xbcd28f5d	-0.025703127
89	0x3db24afc	0.087057084
90	0x3dc2e0ab	0.09515508
91	0x3e035b6d	0.12827845
92	0xbdc4df7b	-0.09612938
93	0x3de98b7a	0.11403556
94	0x3d2166ff	0.039404865
95	0xbdaac99d	-0.08339236
96	0x3d93ea2f	0.07222401
97	0xbb5f1aba	-0.003404303
98	0x3ddc9021	0.10769678
99	0x3d319f8d	0.04336505
100	0xbda4a1ca	-0.08038671
101	0x3e582a19	0.21109809
102	0x3c518390	0.012787715
103	0xbdcba826	-0.09944181
104	0xbddb6abf	-0.107137196
105	0x3d93266d	0.071850635
106	0xbd8addf6	-0.06780617
107	0xbd296635	-0.041357238
108	0x3d55aa6a	0.052164473
109	0xbd845b6d	-0.064627506
110	0xbe4a43f1	-0.1975248
111	0x3d1d9a6a	0.03847734
112	0x3cedc98f	0.029026775
113	0xbc1c9aca	-0.009558389
114	0x3d92f7f6	0.07176201
115	0xbe0b01d3	-0.13574915
116	0xbdbbd904	-0.09172252
117	0xbdcc2e14	-0.09969726
118	0xbd180d42	-0.03712202
119	0xbd1cbee6	-0.038267992
120	0xbd3a8b33	-0.045542907
121	0xbd80baa6	-0.062856
122	0x3d4872bf	0.048937555
123	0x3dddf072	0.10836877
124	0xbce67461	-0.028131666
125	0x3dd78464	0.105232984
126	0xbd1cff78	-0.03832957
127	0x3cdfd78c	0.02732446
128	0x3d12cbda	0.03583894
129	0x3d9fbe88	0.07800013
130	0xbded1666	-0.11576538
131	0x3c50b737	0.012738994
132	0x3db53e7f	0.08849811
133	0xbd554001	-0.052062992
134	0x3d495ddb	0.049161773
135	0x3e6bb7df	0.2301936
136	0x3e0df499	0.13862838
137	0xbd8c374c	-0.068464845
138	0xbd81f869	-0.063462086
139	0x3da32f72	0.07968034
140	0xbd9f9d25	-0.07793645
141	0xbdc01266	-0.09378509
142	0x3d0813d7	0.033222046
143	0x3d4d81e9	0.05017272
144	0x3dd007d5	0.10157744
145	0xbe577035	-0.21038897
146	0xbd4cbf28	-0.04998699
147	0x3ddf84e1	0.109140165
148	0xbe6a00c1	-0.2285185
149	0xbcc34462	-0.023836318
150	0x3d02224f	0.031771
151	0xbe0c2a4f	-0.13688014
152	0xbce532ab	-0.027978262
153	0x3d3c692f	0.04599875
154	0x3c7f627b	0.015587444
155	0xbe6a4e88	-0.2288152
156	0xbdb22c3b	-0.086998425
157	0xbd8c3d28	-0.06847602
158	0x3da0c577	0.078501634
159	0x3da9403b	0.08264204
160	0x3e805238	0.25062728
161	0xbe04a449	-0.12953295
162	0x3cb05a33	0.021527385
163	0xbd8a5020	-0.06753564
164	0x3e30497c	0.17215532
165	0xbd6b0a52	-0.05738289
166	0xbd06aecb	-0.03288154
167	0x3d974f32	0.07388152
168	0xbe00a73d	-0.12563796
169	0xbe2c9d20	-0.16856813
170	0xbd9d4953	-0.07680001
171	0xbe697c33	-0.22801284
172	0x3de3ff70	0.11132705
173	0x3c89ffd0	0.016845614
174	0xbe265cf4	-0.16246396
175	0xbdbd2e43	-0.09237339
176	0x3cfcadd3	0.030844605
177	0x3cf83f10	0.030303508
178	0x3e20932c	0.15681142
179	0x3e0a3efd	0.1350059
180	0xbb47df46	-0.0030498072
181	0xbd212d55	-0.039349873
182	0xbe520a96	-0.2051185
183	0xbe21aa7c	-0.15787691
184	0xbe0058f4	-0.12533933
185	0x3cdef672	0.027217124
186	0xbd858bc7	-0.06520801
187	0x3d726de3	0.059186827
188	0x3e084632	0.13308027
189	0xbe24195a	-0.16025296
190	0x3da6ef60	0.08151126
191	0xbdf3c475	-0.119027056
192	0xbcd704d4	-0.02624742
193	0xbd5d0a9a	-0.05396519
194	0x3e102ae2	0.14078858
195	0x3e17dd61	0.14830543
196	0x3d0607e1	0.032722358
197	0x3e15edf3	0.14641552
198	0xbd748a23	-0.05970205
199	0xbe06b84e	-0.13156244
200	0x3dd10977	0.102068834
201	0x3d5eff48	0.054442674
202	0x3db6624b	0.08905467
203	0x3e001b4e	0.12510416
204	0xbd0ed5da	-0.034871913
205	0x3dd03fe4	0.10168436
206	0xbd8e90d6	-0.06961219
207	0xbc6b0bed	-0.014346105
208	0xbc55cf58	-0.013049923
209	0x3e07fa6c	0.13279122
210	0xbd9065e2	-0.070506826
211	0xbda30de4	-0.07961634
212	0xbd44199b	-0.04787598
213	0xbc192f51	-0.00934966
214	0x3c13e853	0.009027558
215	0xbd533c83	-0.05157138
216	0x3affa1da	0.0019503192
217	0xbc43cd3b	-0.011950786
218	0x3dcac685	0.09901146
219	0x3d3935db	0.045217376
220	0xbe1d9684	-0.15389448
221	0x3e0fe487	0.1405202
222	0x3d66cfd3	0.05635054
223	0x3e36320b	0.17792527
224	0xbe781e88	-0.24230397
225	0xbceab97b	-0.028652897
226	0x3d9b1cad	0.07573829
227	0x3d661d6e	0.05618041
228	0x3e49a243	0.19690804
229	0xbdb61a08	-0.08891684
230	0xbd225b32	-0.039637752
231	0xbb9ea0bf	-0.00484094
232	0x3d00e0b6	0.0314643
233	0x3d92aadf	0.07161497
234	0x3e0d1a65	0.137796
235	0x3de58262	0.11206509
236	0x3e25aaec	0.16178483
237	0xbc8833d2	-0.016626272
238	0x3dacd7e3	0.084396146
239	0xbd89c830	-0.06727636
240	0x3d2faf26	0.042891644
241	0x3d8c9a64	0.06865385
242	0xbe2a3729	-0.16622604
243	0x3e1add34	0.15123445
244	0x3dbf5283	0.0934191
245	0x3d9be946	0.07612853
246	0xbb953dad	-0.0045544715
247	0x3d349bec	0.04409401
248	0x3daf34db	0.08555003
249	0x3e319290	0.17341065
250	0x3cbc2b0f	0.02296975
251	0xbd6125a0	-0.054967523
252	0x3e004b38	0.12528694
253	0xbd7f396b	-0.062310617
254	0x3c782432	0.015145348
255	0xbc9d581b	-0.019207051

fc2.bias f4 [64]
0	0x3dab5e22	0.08367564
1	0xbd97e696	-0.07417028
2	0xbd2c5568	-0.042073637
3	0x3ce0e4d9	0.027452873
4	0x3d84b95f	0.06480669
5	0xbc5ee2bc	-0.013603862
6	0xbd7f022c	-0.06225793
7	0xbb7ff97e	-0.003905862
8	0xbcc4c0da	-0.02401774
9	0x3d9fc448	0.078011096
10	0xbd9a3f71	-0.07531632
11	0x3cc8d3c2	0.024515036
12	0x3c8dfc2f	0.017332165
13	0xbc3d485d	-0.011552897
14	0xbd309e66	-0.04311981
15	0x3d8b0af8	0.067892015
16	0x3d9c0034	0.07617226
17	0xbc20c154	-0.009811718
18	0xbc930039	-0.017944442
19	0x3cca12e4	0.02466721
20	0xbbf8fbd6	-0.0075983806
21	0xbd2a15d8	-0.041524738
22	0xbc8d2619	-0.01723008
23	0xbccc7266	-0.024956893
24	0x3ca63fc5	0.02029408
25	0x3d548bda	0.051891185
26	0xbd52fbe0	-0.051509738
27	0xbdba38fb	-0.090928994
28	0xbd87be34	-0.06628075
29	0x3d98cf32	0.07461394
30	0x3d77ecc0	0.060528517
31	0xbc9f037f	-0.019410847
32	0x3d81e7ec	0.06343064
33	0xbdb2c7a6	-0.08729486
34	0xbd3fdc00	-0.046840668
35	0xba9e2945	-0.0012066743
36	0x3d55a70e	0.05216127
37	0xbc8b6464	-0.017015643
38	0xbccc6af1	-0.024953337
39	0xbd065d4f	-0.03280383
40	0xbdbd995f	-0.09257769
41	0x3cbe29e0	0.023213327
42	0xbd07b017	-0.033126917
43	0x3d273d15	0.040829737
44	0xbd14eb8c	-0.036357448
45	0x3d8f4c8d	0.06997023
46	0x3d67d5ce	0.056600384
47	0xbd34cbd0	-0.044139683
48	0xbdbae1fa	-0.09125133
49	0xbcb7dbf2	-0.022443745
50	0x3d32b8f2	0.04363341
51	0xbd1cd4e1	-0.038288955
52	0x3c7e5baf	0.015524789
53	0x3cccab9f	0.024984179
54	0x3d53cb79	0.05170772
55	0xbda9bfd4	-0.082885414
56	0x3cf086ed	0.029361213
57	0xbd3922b7	-0.045199122
58	0x3d6e31ed	0.05815308
59	0x3db81acd	0.08989487
60	0x3dbde460	0.09272075
61	0xbd160d3c	-0.036633715
62	0x3da9b7a9	0.082869835
63	0x3ce70a47	0.028203143

fc3.weight f4 [1, 64]
0	0x3ea171a2	0.31532007
1	0xbecf44fd	-0.4048232
2	0x3e8f0bc2	0.27938658
3	0x3e8c1d11	0.27365926
4	0xbea9204b	-0.3303245
5	0xbe9377e1	-0.28802398
6	0xbde8a3f1	-0.11359394
7	0x3ea371bc	0.3192271
8	0x3ec00baa	0.375089
9	0xbe9de54f	-0.3083901
10	0xbe4dce1e	-0.20098159
11	0x3ec70322	0.38869578
12	0x3ee108dd	0.43952075
13	0x3ed4ff7d	0.41601172
14	0xbe6b4c98	-0.22978437
15	0x3e9ee28c	0.31032217
16	0x3ec92141	0.39283183
17	0xbea0ef7d	-0.31432715
18	0xbeb5c3f0	-0.3550105
19	0x3ecd1b8d	0.40060082
20	0x3e924ef0	0.2857585
21	0x3dd65c3c	0.10466811
22	0x3e6562fd	0.22401042
23	0x3e9e385d	0.30902377
24	0x3f0637a6	0.5242866
25	0xbe26c6a5	-0.16286714
26	0x3eaf4c6b	0.3423799
27	0xbee82c9a	-0.45346528
28	0xbec225da	-0.37919503
29	0x3e6dec22	0.23234609
30	0x3e9e275d	0.30889407
31	0x3ebf0b30	0.37313223
32	0x3e508955	0.20364888
33	0xbefbf083	-0.49206933
34	0x3ef5ba23	0.47993574
35	0x3e88a869	0.26690987
36	0xbe7a82f0	-0.24464011
37	0xbecaeb1e	-0.39632505
38	0x3eaccbdb	0.3374928
39	0x3e396308	0.18104184
40	0xbeb6f6df	-0.35735223
41	0xbddde229	-0.10834152
42	0xbe9de1aa	-0.3083623
43	0xbe868905	-0.26276413
44	0x3eca7318	0.39540935
45	0x3e739213	0.23786192
46	0xbe52f4b5	-0.20601161
47	0x3d9d5cbd	0.07683704
48	0xbed446f8	-0.41460395
49	0xbecbca9b	-0.39803013
50	0xbe6f72ca	-0.23383632
51	0xbe3a1f47	-0.18175994
52	0x3e5f3c8d	0.21800442
53	0x3eea8dc3	0.4581128
54	0x3ed68c14	0.41903746
55	0x3e97d1b1	0.2965217
56	0xbe351aa7	-0.17685948
57	0x3ec8cf08	0.39220452
58	0xbe2036dd	-0.15645929
59	0x3e94bc55	0.29049936
60	0x3e2e41a7	0.17017232
61	0xbe1b40ef	-0.15161489
62	0xbe010dc8	-0.12602913
63	0x3e4ca034	0.19982988
