trained_uttt_model.pth (torch, 160886 bytes, 5 tensors)

fc1.weight f4 [128, 243]
000000 e1 65 23 bd 79 41 37 3c 04 d5 a4 bc c2 58 12 bd
       -0.03989208 0.0111850435 -0.020121105 -0.035729177
000010 99 e6 14 bc d1 be e9 3c 51 55 aa 3d 42 e8 0b bc
       -0.009088182 0.028533371 0.08317054 -0.008539261
000020 85 e1 99 bc 65 b3 2b 3c 5c 13 69 3d 31 82 4f 3d
       -0.018784294 0.010479783 0.05690323 0.05066127
000030 a6 5a 8f bd 08 b8 f2 3c 01 86 5a 3c 47 2f 0d 3d
       -0.06999712 0.029628769 0.013337613 0.034468915
000040 c7 1a 14 bd a0 0e 0f bd 22 82 89 bd d3 96 88 3d
       -0.03615835 -0.034926057 -0.06714274 0.066693924
000050 af 16 9e bd ef 3c 9e bd bc fa c4 3b 27 9e 85 3d
       -0.0771917 -0.07726466 0.006011335 0.06524306
000060 1f f8 37 bd a3 0a 01 bd 82 b6 09 bd e2 87 41 bd
       -0.04491436 -0.031504285 -0.03362132 -0.04724873
000070 63 3d a3 3d fe aa 8a 3d b3 79 34 bd ac a2 4b bd
       0.07970693 0.067708954 -0.044061374 -0.049715683
000080 b8 93 21 3b b0 c1 f5 3c d9 f2 2c bd 95 57 26 3a
       0.0024654698 0.029999584 -0.042223785 0.0006345448
000090 65 a3 33 bd 36 ce 48 bd cf ea cf bc 26 c6 59 bd
       -0.043856997 -0.049024783 -0.02538052 -0.053167485
0000a0 4e 09 c3 ba 70 d8 a8 3d 0e ec 11 bc 90 32 06 bd
       -0.0014880092 0.08244407 -0.0089063775 -0.032763064
0000b0 14 55 37 bc 1d d5 90 3c 6f 45 2f 3c 60 67 78 bc
       -0.011189718 0.017679745 0.010697707 -0.015161365
0000c0 57 ff 34 bd dc 27 80 bd 51 76 af bc 94 6b fc bc
       -0.044188824 -0.062576026 -0.021418722 -0.030813016
0000d0 a0 78 9d bc 83 63 3c 3c 23 f6 8f bc 67 c3 cf bb
       -0.019222558 0.011498335 -0.017573422 -0.0063404324
0000e0 53 cf 83 bb 11 e4 2b 3d f6 ce 60 bc 18 45 75 bd
       -0.0040225177 0.041965548 -0.013721218 -0.059880346
0000f0 a0 0d 37 3d 87 f3 94 3c 52 6f 7d 3c 6e 9d 0f bd
       0.04469073 0.01818253 0.015468435 -0.035062246
000100 d9 c4 ad bb 3a 9c 1e 3d b1 cb 40 bd 62 0a ee bd
       -0.005303007 0.038723208 -0.047069255 -0.11623074
000110 5b 2a be 3d da 75 86 bd cb 79 83 3d 1a 15 4d bd
       0.092854224 -0.06565447 0.064197145 -0.050068952
000120 e0 87 4c 3d e6 e7 75 3d 5e b8 98 bc 3a da 05 bc
       0.049934268 0.06003561 -0.0186426 -0.008169705
000130 7e be 26 bd 17 cc 25 bd cb f3 d9 3c 2a 32 d6 3c
       -0.04070901 -0.04047784 0.026605507 0.026146967
000140 0a 28 c5 3c b4 95 58 bd 12 90 b6 bd ad c8 d4 3d
       0.024066944 -0.052877143 -0.08914198 0.10389838
000150 cc c1 55 bc 35 6b a7 bb 4c 3e 3e 3d 38 71 8c 3c
       -0.013046693 -0.0051092156 0.04644613 0.01714383
000160 55 ec 51 3d 68 3c aa bc 73 50 7e ba 66 72 7f bc
       0.051250774 -0.020780757 -0.0009701319 -0.01559124
000170 27 5e f7 bb 82 27 04 ba 6f cd db bb 84 42 8c 3b
       -0.0075490656 -0.00050412875 -0.006707839 0.00428039
000180 50 26 97 3d 7f 2a e6 3a fa 40 06 bb 4d 46 bf b9
       0.073803544 0.0017560272 -0.0020485506 -0.00036482737
000190 e7 7c a7 3c df 0a 69 3d f2 d0 5f 3b df b8 e8 3c
       0.0204453 0.056895133 0.003415164 0.028408466
0001a0 01 00 77 3d cd b0 1b 3d fd a5 2a bd 73 a5 3d 3d
       0.060302738 0.038010407 -0.041662205 0.046300363
0001b0 2a e9 14 bb 6c bf 01 3c a9 52 8d 3d 63 58 27 3d
       -0.0022721984 0.007919174 0.06900532 0.040855777
0001c0 c6 59 d9 3c e0 1a b4 bc 84 57 6a bd e9 54 c3 3c
       0.026532065 -0.021985471 -0.057212368 0.0238442
0001d0 c0 c0 41 bc 01 85 7c 3b 47 ff 1a bc 62 78 49 bb
       -0.01182574 0.0038531425 -0.009460277 -0.003074192
0001e0 90 67 dd bc 05 1a 55 bc a6 87 62 bd d7 d8 3a 3d
       -0.027026922 -0.013006692 -0.055305146 0.04561695
0001f0 f0 29 81 3d e3 00 2d bd aa 6f 8a 3d 28 ef b7 3c
       0.06306827 -0.042237174 0.067595795 0.022452906
000200 f2 73 63 bc 28 11 6f 3c 07 cb b0 3c 3b 7c af bc
       -0.013882624 0.014591493 0.021581186 -0.021421542
000210 32 23 0d bc 7e 05 6f 3d b7 77 2a 3d 21 c5 f0 bc
       -0.008614348 0.058354847 0.041618075 -0.029390873
000220 72 dc ba bc 31 44 1f 3d a4 f5 da 3c 01 f8 48 bd
       -0.022810195 0.03888339 0.026728459 -0.04906464
000230 c5 67 be 3b e1 0a 18 bd 62 5c 38 3d b0 a7 6e 3d
       0.00581071 -0.03711975 0.045009978 0.058265388
000240 79 e4 9b bd a7 c1 83 bc 0a 07 4b bc 14 06 ec 3b
       -0.07611937 -0.016083552 -0.012391815 0.007202873
000250 59 d1 ba bd 0d 67 49 3d 99 d4 23 3d 84 f3 51 bd
       -0.09121961 0.049170543 0.03999767 -0.051257625
000260 cb 5c c2 3b 2f e1 ef bc 75 fe 7d bb 18 6c a8 3c
       0.005931472 -0.02928218 -0.0038756405 0.020559356
000270 d2 ca 87 bd a7 20 86 bc d8 5b d4 3d 01 f3 bf 3c
       -0.06630482 -0.016372992 0.1036908 0.023431303
000280 02 10 35 bc c2 db 4f 3c bb 65 68 3c 1d 71 88 3c
       -0.01105118 0.012686672 0.014184411 0.0166555
000290 61 20 0d 3d 72 5e eb 3c ce 1b b7 bc cf af 9a 3d
       0.034454707 0.028731558 -0.022352125 0.07553064
0002a0 d8 61 4a 3d 3d f5 61 bd ae 9e c8 3b 9b f5 ea bc
       0.049409717 -0.055165518 0.0061224317 -0.028681567
0002b0 74 9c 0f 3d e2 a8 99 3d fc 95 84 bd d7 e6 b2 3c
       0.035061315 0.07502915 -0.0647392 0.021838589
0002c0 4f 81 dd bb 8b 4f b5 bd 4c 98 41 bc d5 1c c2 3d
       -0.0067597996 -0.08853062 -0.011816096 0.094781555
0002d0 28 99 ce bd 06 f9 52 3d a8 aa 6a 3c 00 2c ac bd
       -0.10087806 0.05150702 0.014322914 -0.0840683
0002e0 d2 fa 90 3d 1f 1c d3 3c 7c f5 85 bb a9 6c 7f bc
       0.0707909 0.025770245 -0.004088102 -0.015589871
0002f0 d2 e6 aa bc 30 60 3c bd 01 5e a5 bc b1 bf b7 bc
       -0.020862017 -0.04599017 -0.020186426 -0.022430273
000300 dd b4 50 3c ba 8f 1b 3d 54 b2 fe 3b eb e7 7c bd
       0.012738434 0.037978865 0.007772723 -0.06174461
000310 e6 9f d9 bd de 08 15 3e 0a a0 c2 3c aa de 80 3b
       -0.10626201 0.14554164 0.023757953 0.0039327936
000320 b2 c5 1e 3d b4 ec 1f bd ab af f4 bc b5 4b e2 3b
       0.038762756 -0.039044097 -0.029868921 0.0069059976
000330 11 62 7b bd 1d e0 97 3b c0 95 ff bc 13 9f 6e 3d
       -0.06137282 0.0046348707 -0.031199336 0.058257174
000340 cb 67 7f bd 20 87 24 bc 6f b9 ab bd 0f a7 be 3d
       -0.062354844 -0.010041982 -0.08384978 0.09309208
000350 68 92 9e bd e9 c3 0e bd 0d 12 10 3d 8c 45 89 bd
       -0.077427685 -0.034854803 0.035173465 -0.06702718
000360 e8 7d 8a 3d 3b e6 61 bd d4 51 37 bd 1d 64 ab 3b
       0.06762296 -0.055151206 -0.04475577 0.0052304403
000370 3e 34 64 bd af 29 46 bd f7 74 12 bd 0e 6d 78 bd
       -0.055713885 -0.048379596 -0.035756078 -0.060650878
000380 78 e9 a4 3d 8c 76 f7 bd 79 f0 21 bc 2c a8 a4 3d
       0.08052343 -0.12083158 -0.009883993 0.08039889
000390 09 56 6a bc c7 dc 86 3d b6 43 ba 3c dd 91 5f 3d
       -0.014302739 0.06585079 0.022737365 0.054582465
0003a0 fa 95 80 3d f9 90 bf bc 1b 2b 34 3b bb cb 10 3d
       0.06278606 -0.023384558 0.0027491513 0.035350543
0003b0 19 2a 74 3d 10 16 e6 3c 4b 40 72 bc ec 8d 79 3d
       0.05961046 0.028086692 -0.014785836 0.060926363
0003c0 5a 2d 86 3d ea c4 26 bd ef e0 29 bc ae 6d 90 3d
       0.06551619 -0.040715136 -0.01036857 0.0705217
0003d0 21 28 9e 3c 98 f5 df bd 0e 44 a7 3b a4 d1 aa 3d
       0.019306244 -0.10935515 0.0051045483 0.08340767
0003e0 ad 56 21 bc d7 af 9a bd c5 5a 51 3b 9e f5 00 bd
       -0.009847325 -0.0755307 0.0031944972 -0.03148424
0003f0 bb 0e a5 3d bf ee 12 bd ae 18 b0 bc b5 7b f9 3a
       0.0805945 -0.035872217 -0.021496143 0.001903406

fc1.bias f4 [128]
000000 a5 0b f4 ba aa b5 92 3c 24 db 8a 3b 6b 82 86 3d
       -0.0018619193 0.01790889 0.0042375494 0.06567844
000010 fc 75 a2 3d d1 b5 a5 3c 6c 69 68 3d d1 50 fd 3b
       0.0793266 0.020228298 0.056741163 0.0077305813
000020 f3 29 f0 bb cc ec 1f bc c6 ac 12 3c 84 b8 0d 3d
       -0.0073292195 -0.009761047 0.008952325 0.034599796
000030 63 63 87 ba d1 72 84 bd 42 7e 04 bd 5c 76 66 3d
       -0.0010329302 -0.06467212 -0.03234697 0.05626522
000040 92 19 62 3d b0 fa 65 3b 0e e3 f4 bc 2d 7a f5 3b
       0.055200167 0.0035092048 -0.029893424 0.007491371
000050 2d 0e 85 3d bb bf 30 bb 46 09 ab 3c 89 0e 41 bc
       0.064968444 -0.002696975 0.020878445 -0.011783251
000060 6a 50 78 bc 41 da 89 3d d6 4e 63 bc 2b 69 62 3d
       -0.015155891 0.06731082 -0.013873776 0.055276077
000070 26 4d 2c bd 41 a5 86 3c a2 bc 47 3c cb ae 11 bd
       -0.042065762 0.016436221 0.01219097 -0.035567086
000080 92 65 13 bd 73 d6 62 3d f4 bf 2c bc c3 b3 2c bc
       -0.035985537 0.055380296 -0.010543812 -0.010540905
000090 9c e9 82 bd 53 3c a3 3c a4 51 6e bd 9d f5 bb 3c
       -0.06392214 0.019926226 -0.058183327 0.022944266
0000a0 9f ca 4d 3d 8b 00 cb bc 8b 93 4a ba 22 9f ff 3c
       0.050242063 -0.024780532 -0.0007727674 0.03120381
0000b0 6f f8 6d 3d 5d 6e d3 3c 2d da b7 bc 5e 87 8f 3c
       0.058098253 0.025809461 -0.022442902 0.017520603
0000c0 1c ec 2c bd 85 81 64 3d dd 2d 02 3d bc 6b 1d 3d
       -0.04221736 0.055787582 0.03178202 0.03843282
0000d0 94 10 79 bd c3 4d 42 bd a8 45 43 3d f5 b3 6b bd
       -0.060806826 -0.04743744 0.04767385 -0.057544667
0000e0 01 ff 6c 3c 9a 5b c2 bc 3a 48 2d bd a8 20 2e bc
       0.014465095 -0.02372532 -0.04230521 -0.010627903
0000f0 77 30 17 3d 68 87 78 bd 23 d1 6d 3d cc 2d be bc
       0.036911454 -0.06067601 0.058060776 -0.023215197
000100 20 8f 1f 3d 8a 13 60 3c f7 39 44 3d d4 08 ff 3c
       0.038954854 0.0136765335 0.047906842 0.03113214
000110 13 50 fa bc bb db 63 3d 4c b4 fc 3b c7 0f 15 3d
       -0.03055576 0.055629473 0.0077119227 0.036392
000120 7f 70 d5 bc 56 3a 85 bc c8 7c c0 3b 6c 1c f8 bc
       -0.026054619 -0.016263168 0.00587425 -0.03028699
000130 c8 7c f7 bc ae fc 1d 3d 1b 18 59 3b 6c c9 66 bd
       -0.030210868 0.038571052 0.003312594 -0.056344435
000140 d9 41 8e 3d 1e 9b 9e 3a 35 0e 1d 3d 56 e5 48 3d
       0.06946153 0.0012100672 0.038343627 0.049046837
000150 78 5d 18 bb 61 17 0c bd aa 79 79 3d c8 72 3f bd
       -0.002324907 -0.034201983 0.060907044 -0.046740323
000160 4c 1f 2b 3d 80 1b 11 bd 18 9a 88 3c a1 bb 1f bd
       0.041777894 -0.035426617 0.01667504 -0.038997296
000170 c2 8d f3 bc ff 8d 4f 3d d6 2a 38 3c d7 21 f0 bc
       -0.029730681 0.050672527 0.011240682 -0.029313011
000180 db 78 e4 bc 7c 74 22 bd 61 58 6d 3a 85 ed 07 3c
       -0.02788966 -0.03966187 0.0009054002 0.008296375
000190 c1 a4 4a 3d 8e b2 7d 3d 4b df 83 3d 40 64 55 bd
       0.049473528 0.06193786 0.06439074 -0.05209756
0001a0 67 0a e9 bc c7 a1 04 bd 4f 2b 3b 3d 29 22 05 bd
       -0.028447343 -0.032380845 0.0456956 -0.03250328
0001b0 13 c9 89 bc f3 0b ae bc 68 64 47 3c a1 dc 4a 3c
       -0.016819512 -0.021245932 0.012169935 0.012381704
0001c0 21 9b 99 3c 4f ba 90 bc f3 a1 fc bb 3e 80 44 3d
       0.018750729 -0.017666964 -0.0077097355 0.047973864
0001d0 74 71 1a 3d ad 2d ea 3c 6d 91 27 3d 1b 83 b7 3c
       0.037705854 0.028586233 0.040910173 0.022401383
0001e0 24 a8 56 bd f9 41 d1 3a c6 22 e8 3b f9 2d 0a bd
       -0.052406445 0.0015965096 0.0070842234 -0.03373525
0001f0 25 ca fd bc b1 66 2e 3d 06 4a 56 3d 49 5c 41 bd
       -0.03098018 0.042578403 0.052316688 -0.04720715

fc2.weight f4 [64, 128]
000000 ee 22 f8 3d 11 98 84 bd 0e bc e9 3d db f9 28 bd
       0.12116037 -0.06474317 0.11412822 -0.041253906
000010 b3 e9 b6 3d d4 86 24 3e a7 9b 10 3d f8 44 7e be
       0.08931293 0.16067058 0.03530469 -0.24830997
000020 62 ef 13 3d 77 7e 81 3c c5 e8 4d bd 05 9f 19 3d
       0.036116965 0.015807373 -0.050270814 0.03750517
000030 b3 67 1f 3e 05 85 20 3e 9b 6f 19 3d e8 b0 5b 3c
       0.15566902 0.15675743 0.03745995 0.013408877
000040 a4 71 1f be a7 90 e5 3d a2 e3 10 3e 1f 1c 19 3d
       -0.15570694 0.11209231 0.14149335 0.037380334
000050 83 38 04 bd 6f 12 01 3e 9b e1 4d 3d 0d d4 db bd
       -0.032280456 0.12604688 0.050263982 -0.10733805
000060 89 e7 2b bd f7 4f 09 3e 5a f7 9c 3d 8f dd 04 be
       -0.041968856 0.1340941 0.07664366 -0.12975143
000070 f0 d6 94 bc f8 93 99 3d db 10 5d bd 55 ac 05 3e
       -0.018168896 0.07498926 -0.053971153 0.1305402
000080 8a 81 ab 3d ee ae 20 3d 06 5e 39 3d f0 14 41 3c
       0.08374317 0.039229326 0.045255683 0.011784777
000090 c0 f8 c2 3d f3 ed da bd 79 37 2f bc 79 d1 33 3d
       0.095201015 -0.106899165 -0.010694378 0.04390094
0000a0 2d dc 89 bd 6b 2e e2 3d 18 42 e6 3d 39 54 d6 3d
       -0.06731448 0.1104401 0.11243075 0.10465283
0000b0 7d c7 a7 bd c3 dc a9 3d 66 6c 44 bd 83 72 0a bd
       -0.08192346 0.0829406 -0.04795494 -0.033800613
0000c0 f2 3c 0d bd 4e 2d a7 3d ed 93 a4 bd a1 f2 52 bd
       -0.03448195 0.08162938 -0.08036027 -0.05150092
0000d0 64 61 52 bd 85 b9 a4 bd e1 99 22 3e c5 de cd 3d
       -0.05136241 -0.080431975 0.15879013 0.100522555
0000e0 f5 2a db 3c 62 8e 15 3d 5e db f0 bd 01 7d a0 bd
       0.026753882 0.03651274 -0.11760591 -0.078363426
0000f0 a9 fa 94 bd 25 68 eb 3c 70 a3 ba ba 37 be 40 be
       -0.07274372 0.028736183 -0.0014239382 -0.18822561
000100 22 8b 7e 3d 78 a0 85 bd d1 65 db 3d ca 1f 5a be
       0.062144406 -0.065247476 0.10712779 -0.21301189
000110 79 d9 12 bc 7c 8d 15 3a d7 db a1 3d bf 9c 09 bd
       -0.008962982 0.0005704982 0.07903259 -0.03359675
000120 55 2e dd bd 37 30 61 be 8a 60 c7 bd 1d 52 eb bd
       -0.10799853 -0.21991049 -0.0973521 -0.11490271
000130 57 3b 44 3c f9 ca 46 3b f8 18 f7 bd d6 c2 2f be
       0.011977038 0.0030333383 -0.12065309 -0.17164168
000140 d3 2a 8d bd b7 8e 62 3d 44 51 6f 3d 12 87 4b bd
       -0.06892934 0.055311885 0.05842711 -0.04968936
000150 11 2e e7 bd 69 2d 67 bc 20 39 f8 3d bc 3d d8 3d
       -0.11288083 -0.014109948 0.12120271 0.1055865
000160 65 fb 19 3e 3f 13 ea 3c e5 60 ac bd 31 b7 7c 3d
       0.15037306 0.02857363 -0.08416919 0.061698142
000170 cc fd 00 3c 85 9b b8 3d 5a a8 2b be 37 c4 c2 bd
       0.00787301 0.09014038 -0.1676344 -0.09510081
000180 d9 f5 d4 3d 07 36 07 be cb bf d0 3c 82 c2 f7 3d
       0.10398454 -0.13204204 0.025482079 0.12097646
000190 f9 f1 42 3d b9 2f 2a 3d 84 a6 95 3d 54 88 ea 3d
       0.047594044 0.041549418 0.07307151 0.11451784
0001a0 09 b8 5f be be e0 8d bd 1d e1 92 3d 10 4c b1 3d
       -0.21847548 -0.06927632 0.07171843 0.08657086
0001b0 e2 6c 20 be 46 15 a0 3c 58 2d 36 bd 12 85 61 bc
       -0.15666535 0.019541394 -0.044476837 -0.013764637
0001c0 73 13 b2 3d 94 d6 f0 39 ae ae 2c bd 26 3f 05 be
       0.08695116 0.0004593624 -0.042158775 -0.1301237
0001d0 c4 57 c7 3d ad f9 9e bc 42 41 df 3c 09 02 f3 3d
       0.09733537 -0.019406164 0.027252797 0.118656226
0001e0 60 14 29 be 34 ce 29 3e 9d 25 f9 3d 75 2a bb bc
       -0.16511679 0.16582566 0.12165377 -0.022847394
0001f0 5d 64 8f 3c 2c 50 a8 3d ee b6 1b bc 84 3c bb bd
       0.017503912 0.082184166 -0.009504063 -0.09142402
000200 37 69 38 bc 8d 32 f8 3d ef 96 bc bd ab 1d 6b 3d
       -0.011255554 0.12119017 -0.09208476 0.05740134
000210 93 40 15 bc 91 03 e6 bd 4f bf 4f bd 16 b8 30 3d
       -0.009109634 -0.11231149 -0.050719555 0.043144308
000220 f5 75 7f 3d 8a 31 db 3d 22 cf 1d bd 13 44 74 3d
       0.062368352 0.10702808 -0.038527615 0.059635233
000230 4b fd 23 bc ee ea 37 be 03 b0 ab 3d 02 e3 dd 3d
       -0.01000912 -0.17960712 0.08383181 0.10834314
000240 c1 5e f5 3d 80 e0 35 bd fe 69 23 be 18 27 07 be
       0.119809635 -0.044403553 -0.15958402 -0.13198507
000250 b0 c9 1e 3e 1e ec b0 bd b6 24 b5 3d 2f 59 92 3d
       0.15506625 -0.08638786 0.08844893 0.07145917
000260 00 3c 9f 3d 43 bd e8 3c f9 c3 25 bc 5d 30 93 3c
       0.07775116 0.02841056 -0.010117524 0.017967397
000270 b0 f5 fb 3d ef 32 77 bd a7 4f fb bc c1 9e 4b 3d
       0.123027205 -0.06035131 -0.03067763 0.049711946
000280 05 b3 f1 bd a9 e3 52 bd 71 51 bf 3d c2 8c 21 3d
       -0.118017234 -0.051486645 0.093417056 0.039440878
000290 54 71 5b 3d 82 24 cc 3d ec 45 14 3e 23 53 a7 bc
       0.053574875 0.09967901 0.14479798 -0.020425385
0002a0 06 d0 1f 3e 9b 31 aa 3c 72 0e 77 bd ea 0c da 3d
       0.15606698 0.020775607 -0.06031651 0.106469944
0002b0 f3 ca 4a 3d 2b 80 9b bb 52 ae 5f 3d f2 fb fe 3d
       0.049509954 -0.0047455034 0.054609604 0.124503985
0002c0 42 fd b5 3c 4f 8b 58 3d 5a 61 dd 3d 98 c0 13 3e
       0.02221549 0.05286723 0.10809584 0.14428937
0002d0 0d 58 ca bd 37 63 5e 3c d8 49 9b bd 1d 92 65 bd
       -0.098800756 0.013573459 -0.07582444 -0.056047548
0002e0 d6 73 fe bd 9e 3e 88 bd 39 27 fc 3d fb 77 b2 3d
       -0.12424438 -0.06652568 0.12312169 0.08714291
0002f0 22 0c 2a bd 83 c9 7d ba 38 b7 95 bd cb e1 ec 3d
       -0.041515477 -0.00096812117 -0.07310337 0.11566504
000300 ea c5 07 be a8 d7 ba 3d a3 fb e5 bd db b1 8a bc
       -0.13259092 0.091231644 -0.112296365 -0.016930511
000310 f0 47 5d 3d 17 99 11 3c eb d8 7a bd 3a c1 f0 bc
       0.054023683 0.008886597 -0.061242025 -0.029389013
000320 a5 f2 02 3d d8 68 e5 3d fe 3d 62 3d 9a 03 62 bd
       0.031969685 0.11201638 0.0552349 -0.055179216
000330 cc 61 d3 bd bf 36 ab 3c 9a b6 36 3d 6b c3 84 3d
       -0.10321388 0.020900128 0.044607736 0.064825855
000340 e5 9f dc bc 58 b3 e8 bd 5d 2d c4 3c 6a ee ab 3d
       -0.026931712 -0.11362332 0.023947412 0.08395083
000350 c5 6b 8a bc 67 3c 8c bd 34 bf 9a 3d 62 ab a3 bd
       -0.016897092 -0.06847458 0.07556 -0.07991673
000360 f0 a4 2b bd 4b ab 13 be e7 87 72 3d 3e 4c b2 3d
       -0.041905344 -0.14420812 0.059211638 0.08705948
000370 b8 32 f5 3d 20 53 f9 bd aa 99 06 3e 15 ae 4a 3d
       0.119725645 -0.12174058 0.13144556 0.049482424
000380 0e 8d 89 bd 06 96 39 ba df d2 89 bd 57 9f 82 bb
       -0.06716357 -0.0007079545 -0.067296736 -0.00398628
000390 50 70 a3 3c 7d c8 f1 3d 11 cb 9e 3c a3 4c 8f bd
       0.019951016 0.11805818 0.019383939 -0.06997039
0003a0 f8 ad e0 bd 14 62 f8 3d ea f4 76 3c 74 e5 d6 bd
       -0.10970682 0.12128082 0.0150730405 -0.104929835
0003b0 20 f1 19 ba 21 3d f1 bd 80 0a 3f 3d 2d da b7 bd
       -0.0005872417 -0.117792375 0.046640873 -0.089771606
0003c0 0c aa b0 bd 72 1a 47 bd 13 f3 bd 3d b6 da e8 3c
       -0.08626184 -0.048609205 0.09274878 0.028424602
0003d0 1f d7 d7 bd b9 35 c2 bd 88 e6 90 bd 5f 40 ea bb
       -0.10539078 -0.09482903 -0.0707522 -0.007148787
0003e0 b8 97 fb 3d 9f ae a7 3c b5 19 0a be 72 5b 44 3c
       0.122847974 0.020469008 -0.13486369 0.011984693
0003f0 f8 6d ef bd 18 73 5f be 67 76 c4 bd 2f 0a 89 3d
       -0.11690897 -0.21821249 -0.09592896 0.066913955

fc2.bias f4 [64]
000000 78 6b 93 bd f3 f3 b1 3c fa 08 9c 3c fa b0 eb bc
       -0.071982324 0.02172277 0.01904725 -0.028770912
000010 3c 12 10 3d 56 16 2e bd 41 40 5e bc 92 79 61 3d
       0.03517364 -0.04250177 -0.013565124 0.05504758
000020 4e 2f 61 bc 8a 63 bc bb fc 7a ea 3c 00 01 40 3d
       -0.0137441885 -0.0057491707 0.028623097 0.046875954
000030 7c 52 c1 3d a6 0e 95 3d 95 dd 90 3d 19 e3 99 3d
       0.09439561 0.072781846 0.070735134 0.075140186
000040 48 86 e8 bb 4f d2 ca bc 6c 10 c9 ba 8b 34 9f 3c
       -0.0070960857 -0.024758486 -0.0015339977 0.019434234
000050 4f 07 b3 bc d1 0c 75 ba 5d 57 1a bc 34 74 7f bd
       -0.021854071 -0.0009347918 -0.009420243 -0.06236668
000060 bc 31 78 3d 40 08 96 bb 48 1e 61 bd 76 8f bd 3c
       0.060594305 -0.00457862 -0.05496052 0.023139697
000070 bd 3c b5 3d ad 79 ed 3c 07 1c a9 bc 4d 46 29 3d
       0.088494755 0.028988684 -0.020643247 0.04132681
000080 41 d9 d0 bb 6d ca ab 3d cd 8e 14 3d e7 8a 76 3d
       -0.006373555 0.08388219 0.036268998 0.06019106
000090 61 c3 a9 3c d9 79 8f 3c 37 7c c3 3d 95 3b f5 ba
       0.020723047 0.017514156 0.095451765 -0.0018709773
0000a0 eb cc 67 3d 2b 2f a9 3d ff 12 98 3d d8 19 75 bd
       0.05659191 0.0826095 0.07425498 -0.0598391
0000b0 99 a1 79 bc 84 dc d9 bc fd 75 ca bb 1c 14 88 bd
       -0.015236282 -0.026594408 -0.006178616 -0.066444606
0000c0 d4 8c 9e 3d f4 a4 70 bd 88 00 89 bd 1a 7a 15 bc
       0.077417046 -0.05875106 -0.066895545 -0.00912335
0000d0 1c 18 78 3d 8f c4 36 3d 75 d7 8f bd c1 de 08 3d
       0.060569867 0.044621047 -0.07023517 0.03341556
0000e0 67 bb c4 3d 52 e8 6b bd 0e 52 8d bd 21 4c 97 3d
       0.09606057 -0.057594605 -0.06900416 0.07387567
0000f0 78 33 9b 3d dd cb 1e bd 95 db 83 3d 24 4d 9a bd
       0.07578176 -0.038768638 0.06438366 -0.07534245

fc3.weight f4 [1, 64]
000000 25 89 eb 3e d2 89 58 be 8c 19 bb be 3c e4 5e be
       0.4600307 -0.21146324 -0.36542928 -0.21766752
000010 65 e4 f9 be 96 92 83 3e c4 85 98 3e 7e f1 85 3e
       -0.48807064 0.25697774 0.29789555 0.26160806
000020 1a ef fe be 74 4a a2 be cd a5 cf bd 7f ac dd 3e
       -0.49791795 -0.31697428 -0.10139046 0.43295667
000030 b4 82 07 3f 78 6e f4 3d ad 87 ec 3e 9e 6a 3c 3e
       0.5293381 0.11935133 0.46197262 0.18400046
000040 38 0d 94 3e e2 51 a4 be 2e 73 c8 be ef 8e 04 be
       0.28916335 -0.32093722 -0.39150375 -0.1294515
000050 cf 27 9d 3e 88 c2 cf be 81 46 b0 be 6d 09 b1 3e
       0.30694434 -0.40578103 -0.3442879 0.34577504
000060 26 43 07 3f 9e 6b 9e be 6f 1d e6 3e 9e 0f 9c be
       0.52836835 -0.3094148 0.4494433 -0.30480665
000070 a8 25 7e be 19 73 96 be 0b e7 b7 be 37 6b c2 be
       -0.24819052 -0.29384688 -0.3591846 -0.37972423
000080 d5 19 b3 be 08 8d 9b be 26 bd c0 3e 3c 3f 6a be
       -0.34980646 -0.30381036 0.3764431 -0.22875684
000090 3f c6 91 be 0d a5 7e be 74 cd c6 be b9 24 2c be
       -0.28471562 -0.2486765 -0.38828623 -0.16810884
0000a0 41 c8 57 3e 9f ee 5d 3e f6 13 74 be 31 2b c0 be
       0.21072485 0.21673058 -0.2383574 -0.37532952
0000b0 93 36 97 3e 1e 0a 9e be e6 6f e2 be 56 46 0b bf
       0.29533824 -0.30867094 -0.44225997 -0.544042
0000c0 fa 5d 5a be ae 59 cb be 5b 6c 92 3e 18 2a ce 3e
       -0.21324912 -0.39716858 0.28598294 0.4026649
0000d0 ce 25 33 3e 6b 78 5c be a1 d0 d4 be 0d 17 95 be
       0.1749489 -0.21530311 -0.4156542 -0.2911915
0000e0 6a 95 f4 3e f8 32 86 3e 16 7b d0 be bd 1f 2a 3e
       0.47770244 0.2621076 -0.40718907 0.1661367
0000f0 32 14 65 be 3a a1 6c 3e f1 28 77 be 25 16 96 be
       -0.22370985 0.23108378 -0.24136712 -0.2931377
