trained_uttt_model.pth (torch, 160950 bytes, 5 tensors)

fc1.weight f4 [128, 243]
0	0xbcec1954	-0.028820671
1	0x3cf7beca	0.030242343
2	0xbcc3a69f	-0.023883162
3	0xbd244e5d	-0.040113796
4	0xbdb4cb08	-0.08827788
5	0x3dea020f	0.11426174
6	0x3a9cae5e	0.0011953821
7	0x3d28d51d	0.041218866
8	0xbd9efb53	-0.0776278
9	0xbd3cb864	-0.046074286
10	0x3cc66776	0.024219256
11	0x3a955686	0.0011393584
12	0x3bed9bc6	0.0072512357
13	0x3d86ee7d	0.06588457
14	0xbdd25d9b	-0.1027176
15	0xbc97d84d	-0.018535757
16	0xbc10986a	-0.008825401
17	0xbbf53905	-0.007483604
18	0x3d068d65	0.032849688
19	0x3d04e753	0.03244717
20	0xbdd0bc6a	-0.10192187
21	0x3d21e0de	0.03952109
22	0xbddf6ec9	-0.109098025
23	0x3ce8c4e0	0.02841419
24	0xbdccb329	-0.099951096
25	0x3d34d0bf	0.04414439
26	0x3cdcb755	0.026942888
27	0xbd516b31	-0.051127616
28	0xbc70e0a0	-0.014701992
29	0x3d35bc3c	0.044368967
30	0x3c8698c4	0.016430266
31	0xbdcdcab6	-0.1004843
32	0x3d3470bf	0.044052836
33	0x3ce272e0	0.027642667
34	0xbcfe0650	-0.03100887
35	0xbcac2292	-0.021012578
36	0xbcad2ff4	-0.02114103
37	0xbcbcb5ce	-0.02303591
38	0x3d1aa1a3	0.037751805
39	0xbb2ae7d4	-0.0026078122
40	0xbe2b4f82	-0.16729549
41	0x3e101892	0.14071873
42	0xbd7fdfa1	-0.06246913
43	0xbc482415	-0.012215634
44	0x3d4f433c	0.05060123
45	0xbd438580	-0.047734737
46	0xbae432a5	-0.0017410113
47	0x3d25480f	0.040351924
48	0x3c8dfa6e	0.017331328
49	0xbd966b3c	-0.07344672
50	0x3ce99009	0.028511064
51	0xbccdeb1e	-0.025136527
52	0x3b98319d	0.0046445862
53	0x3c7ce702	0.015435936
54	0xbd851f0e	-0.06500064
55	0x3c9a78dc	0.018856458
56	0x3cc1a656	0.023638885
57	0x3cba8a40	0.022771
58	0xbcd8abe4	-0.026449151
59	0xbc205e53	-0.009788114
60	0x3c9d6a27	0.019215656
61	0x3c89112d	0.016731823
62	0xbd6bdc7c	-0.057583317
63	0xbc5dccbf	-0.013537585
64	0xbd438fd9	-0.047744606
65	0x3cf0c5e5	0.029391238
66	0x3d701eee	0.058623247
67	0xbdfba164	-0.12286642
68	0x3cfcdaba	0.030866016
69	0xbc39b5fc	-0.011334892
70	0xbbe624da	-0.007023436
71	0x3b4167fe	0.0029511447
72	0x3a34f326	0.0006902687
73	0xbd21da2e	-0.039514713
74	0x3ca85b5d	0.020551378
75	0x3d91e2f0	0.07123363
76	0xbd82a421	-0.06378961
77	0xbd17a5f3	-0.037023496
78	0xbd04a8e1	-0.032387618
79	0x3d6cdf91	0.057830397
80	0xbd48b243	-0.04899813
81	0xbc200981	-0.009767891
82	0xbdcdedd2	-0.10055126
83	0x3d9c88a8	0.076432526
84	0x3d8299ca	0.06376989
85	0xbdd68dc5	-0.10476259
86	0x3cc2d401	0.023782732
87	0x3dbcf00a	0.09225471
88	0x3bedec66	0.007260847
89	0xbe055cb1	-0.1302364
90	0xbd45d9b2	-0.048303314
91	0xbcd6553b	-0.026163688
92	0x3d80ffa2	0.06298758
93	0xbd4fc5e8	-0.050725847
94	0x3c98ff58	0.018676445
95	0x3c99b127	0.01876123
96	0xbb6a2786	-0.0035729124
97	0xbd0ad455	-0.0338939
98	0x3cea286a	0.028583724
99	0x3d03c523	0.032170426
100	0xbd3057c9	-0.04305247
101	0x39211189	0.00015360689
102	0x3cb0961b	0.02155595
103	0xbd30ddaf	-0.043180164
104	0x3c298a47	0.010347909
105	0xbdbfe1ff	-0.09369277
106	0xbc828848	-0.015934125
107	0x3da04d90	0.07827294
108	0xbd45a5b3	-0.048253726
109	0x3ce5590b	0.02799656
110	0xbc900fae	-0.017585602
111	0x3c0974ef	0.008389696
112	0xbc8a6c58	-0.016897365
113	0xbc1581a7	-0.00912515
114	0xbdc0cfc8	-0.09414631
115	0xbd1919bd	-0.03737806
116	0x3dac49ee	0.084125385
117	0x3d9a23f4	0.07526389
118	0xbced83bd	-0.028993482
119	0xbda9fc3e	-0.083000645
120	0xbc7b5f21	-0.015342505
121	0xbd834f12	-0.06411566
122	0x3d2ca38e	0.042148165
123	0xbd5bda23	-0.05367483
124	0xbd9cf732	-0.07664336
125	0x3dcd6848	0.10029656
126	0xbc9cdc0b	-0.019147893
127	0x3a7f1979	0.0009731274
128	0x3bb726cc	0.0055893417
129	0xbdcc2b1f	-0.09969162
130	0x3ce40a1a	0.027836848
131	0x3d4c29c8	0.049844533
132	0x3d3b319b	0.045701604
133	0xbc8c29a3	-0.017109698
134	0xbd1aab77	-0.037761178
135	0x3c5b71a5	0.013393794
136	0xbcb3ca0c	-0.02194693
137	0xbc02c88b	-0.0079823835
138	0x3ae37e77	0.0017356415
139	0xbc074f22	-0.008258613
140	0xba0ed93f	-0.00054492423
141	0xbd5b0cf8	-0.053479165
142	0xbd1ca1d2	-0.03824026
143	0x3d973854	0.073837906
144	0x3ba88034	0.005142236
145	0xbd4637a7	-0.048392918
146	0x3cb5fb05	0.022214422
147	0xbc288da6	-0.010287678
148	0xbc4e7e88	-0.01260341
149	0x3b988fdf	0.0046558226
150	0x3c8c0d55	0.017096201
151	0xbddb751d	-0.10715697
152	0x3d9682eb	0.07349189
153	0xbdd90dea	-0.10598357
154	0xbcb84755	-0.022494951
155	0x3dd21b3b	0.102591
156	0xbb28bf13	-0.0025748655
157	0xbcdceb68	-0.02696772
158	0x3cae5522	0.021280829
159	0xba28ebfb	-0.0006443855
160	0xbd81745a	-0.063210204
161	0x3d30483c	0.043037638
162	0xbad0dd75	-0.001593514
163	0x3c0ee95d	0.00872263
164	0xbd0035cf	-0.031301316
165	0xbd408111	-0.046998087
166	0xbc6a6fd2	-0.014308887
167	0x3d50ec53	0.051006626
168	0xbd3430c5	-0.043991823
169	0x39df0ef1	0.00042545007
170	0x3d181de2	0.037137873
171	0x3ca3b78c	0.019984983
172	0xbdaea4f1	-0.08527554
173	0x3d326b55	0.04355939
174	0xbd8c1b79	-0.068411775
175	0x3dcb6fe2	0.09933449
176	0xbd2b8c3c	-0.041881785
177	0x3bb1c62c	0.0054252353
178	0xbcad9e83	-0.021193748
179	0xbc3fe366	-0.011711931
180	0xbcc63e9a	-0.024199773
181	0xbc48c54d	-0.012254071
182	0x3b9ce8fb	0.0047885156
183	0xbcced326	-0.025247168
184	0x3c729d84	0.014808062
185	0xbce3b6ca	-0.027797122
186	0x3cd996da	0.02656119
187	0xbb403c26	-0.0029332726
188	0xbcfbb70c	-0.030726932
189	0x3b21c2ec	0.0024682833
190	0xbd9bb25d	-0.076023795
191	0x3d27e3df	0.0409888
192	0xbd951b04	-0.072805434
193	0xbcb7cc7e	-0.022436377
194	0x3d906d10	0.07052052
195	0xbc82470a	-0.015903015
196	0x3c81a9ba	0.015828002
197	0xbc929f38	-0.017898187
198	0xbd35ae74	-0.044355825
199	0xbdf05985	-0.117358245
200	0x3e0e14df	0.13875149
201	0x3c8038b4	0.015652038
202	0x3c2f8ecf	0.010715201
203	0xbd173c46	-0.036922716
204	0xbaae5626	-0.0013300821
205	0xbdc1031c	-0.09424421
206	0x3da0eb61	0.07857395
207	0xbdce2094	-0.100648075
208	0xbc116e07	-0.00887633
209	0x3d845cb5	0.06462995
210	0xbd7c4351	-0.061587635
211	0x3cc5f464	0.024164386
212	0x3cc79077	0.024360878
213	0xbd8fc42e	-0.0701984
214	0xbcc4fc02	-0.024045948
215	0x3d8b7d5a	0.06811018
216	0x3b6ef5f8	0.0036462527
217	0xbcd78179	-0.026306855
218	0x3bd2ee5f	0.0064371075
219	0x3d5ef10c	0.0544291
220	0xbde87f34	-0.11352387
221	0x3d2eb4b9	0.04265282
222	0xbd233b96	-0.039851747
223	0xbd260ea7	-0.040541317
224	0x3d81473f	0.06312417
225	0x3ca8ee57	0.020621462
226	0xbcb08a7e	-0.021550413
227	0xbc7ea8f7	-0.015543214
228	0xbd73111b	-0.059342485
229	0xbd9ed88a	-0.07756145
230	0x3de679e8	0.112537205
231	0x3d52aafd	0.0514326
232	0xbdc3caea	-0.09560187
233	0x3d102d08	0.035199195
234	0xbcffd50e	-0.031229522
235	0x3c6ab992	0.01432647
236	0x39f6e4cb	0.0004709124
237	0xba3af131	-0.0007131277
238	0xbd0f6ddb	-0.035016876
239	0x3c9cdd5f	0.019148527
240	0xbda31815	-0.07963578
241	0xbb166442	-0.0022947942
242	0x3d8acbe1	0.06777168
243	0xbc8a9ae0	-0.016919553
244	0xbd4a173c	-0.049338564
245	0x3d4dff3d	0.050292242
246	0x3da345db	0.07972308
247	0xbb304cc2	-0.002690122
248	0xbdfaccaa	-0.12246068
249	0x3bab65b9	0.005230632
250	0xbda2a964	-0.07942465
251	0x3d7606cf	0.060065087
252	0xbd667f40	-0.0562737
253	0xbb8ddf1f	-0.0043295766
254	0x3d192a62	0.037393935
255	0x3d212a8e	0.039347224

fc1.bias f4 [128]
0	0xbc92203b	-0.017837634
1	0xbc61fbb1	-0.013792918
2	0xbc4e5d9b	-0.0125955595
3	0xbc54fa37	-0.012999109
4	0xbc707d8c	-0.01467837
5	0xbcf0e23f	-0.029404758
6	0xbc8d0447	-0.017213954
7	0xbcd8f8e5	-0.02648587
8	0xbd1e1b57	-0.038600292
9	0xbd0379ac	-0.032098457
10	0xbd104bab	-0.035228413
11	0xbcf8ac73	-0.030355668
12	0xbd4df019	-0.050277803
13	0xbd0bcb2a	-0.0341293
14	0xbcdb4396	-0.026765626
15	0xbc8d9163	-0.01728124
16	0xbd2f380a	-0.042778052
17	0xbcdca2a9	-0.026933031
18	0xbc9b8f48	-0.01898922
19	0xbc3798ba	-0.011205846
20	0xbd124bdd	-0.03571688
21	0xbc3a5553	-0.011372882
22	0xbd11ede2	-0.035627253
23	0xbc6364d9	-0.013879024
24	0xbce2702a	-0.027641375
25	0xbcd2ee56	-0.025748413
26	0x3bdbdbc8	0.0067095496
27	0xbcaa2616	-0.020770114
28	0xbc744618	-0.01490929
29	0xbce52c91	-0.027975352
30	0xbcfe41b7	-0.031037195
31	0xbcbb4aa1	-0.022862734
32	0xbccd2429	-0.025041657
33	0xbd3a51e5	-0.045488257
34	0xbab9fa4b	-0.0014188973
35	0xbc211e02	-0.009833815
36	0x3b8ac903	0.0042353882
37	0xbcd85874	-0.026409365
38	0xbc6d069b	-0.014466907
39	0xbc2eb9a9	-0.010664382
40	0xbbf1ab1d	-0.0073751346
41	0xbcd2e00d	-0.025741601
42	0x3b14ae20	0.0022686794
43	0xbd2b3153	-0.041795086
44	0xbc72fdb0	-0.014830992
45	0xbc3640e6	-0.011123871
46	0xbb900d51	-0.0043961187
47	0xbcaf0b56	-0.02136771
48	0xbce504d2	-0.0279564
49	0xbcbd0220	-0.023072302
50	0xbd0610b9	-0.03273079
51	0xbd07107d	-0.03297471
52	0x3ad17950	0.0015981589
53	0xbb5bca73	-0.0033537417
54	0xbc8785a3	-0.016543215
55	0xbcad8c9f	-0.021185217
56	0xbd233835	-0.039848525
57	0xbc57c632	-0.013169812
58	0xbce06da1	-0.027396025
59	0xbd4d6df9	-0.050153706
60	0xbcc29e2a	-0.02375706
61	0xbc809e21	-0.015700402
62	0xbcdcfd9f	-0.026976405
63	0xbc376ecd	-0.011195851
64	0xbcb39f69	-0.021926599
65	0xbc600ac3	-0.013674441
66	0xbc9fc385	-0.01950241
67	0xbd361a7a	-0.044458844
68	0xbcfbbdbb	-0.030730119
69	0xb91ba751	-0.00014844282
70	0xbbb03a43	-0.005378039
71	0xbcafc5e4	-0.021456666
72	0xbc108a7d	-0.008822081
73	0xbcf1bcc7	-0.029508961
74	0xad8e419e	-1.617267e-11
75	0xbcf7978a	-0.030223627
76	0xbd46f87b	-0.048576813
77	0xbccf8b5b	-0.025335005
78	0xbd3de962	-0.04636515
79	0xbcce5b31	-0.025189968
80	0xbc7b98b6	-0.015356233
81	0xbc67fb01	-0.014158965
82	0xbd25cca3	-0.04047836
83	0xbce9569a	-0.028483678
84	0xbd0938be	-0.03350138
85	0xbc8b2bfa	-0.016988743
86	0xbb68fc47	-0.003555076
87	0xbcf6598f	-0.030072002
88	0xbd115575	-0.03548189
89	0xbc87c2e1	-0.016572418
90	0xbc57a646	-0.013162201
91	0xbcd1c50d	-0.025606656
92	0xbcb965df	-0.022631584
93	0xbd2adbce	-0.04171353
94	0xbd0bfddc	-0.034177646
95	0xbc98eca6	-0.01866753
96	0xbb01bec1	-0.0019797536
97	0x3b71bdc7	0.0036886798
98	0xbc28dcab	-0.010306518
99	0xbcd8cd11	-0.02646497
100	0xbd02e851	-0.031959835
101	0xbc561a97	-0.013067863
102	0xbd16b1b5	-0.03679057
103	0xbc9e20e2	-0.01930279
104	0xbce722f9	-0.028214918
105	0xbb753230	-0.0037413947
106	0xbcc771ba	-0.024346221
107	0xbba0cd74	-0.0049073044
108	0xbc1c5944	-0.009542767
109	0xbc434b40	-0.0119197965
110	0xbc9bc34d	-0.019014025
111	0xbac34fda	-0.0014901117
112	0xbcc64051	-0.02420059
113	0xbbfa2dbb	-0.007634846
114	0xbd2c8284	-0.042116657
115	0xbd1f78d6	-0.038933598
116	0xbd217acb	-0.039423745
117	0xbd1fedf8	-0.039045304
118	0xbc9f08e9	-0.019413428
119	0xbd222f39	-0.039595816
120	0xbcbf4bbc	-0.023351543
121	0xbcbd9b9e	-0.023145493
122	0xbd0e74fe	-0.03477954
123	0xbd03e825	-0.032203812
124	0xb9aaa4ea	-0.00032547797
125	0xbcab35b6	-0.020899635
126	0xbcd00f64	-0.025397964
127	0xbd019401	-0.03163529

fc2.weight f4 [64, 128]
0	0x3ce10269	0.02746697
1	0x3d6754ea	0.056477465
2	0x3d1f0ead	0.038832355
3	0xbd869e41	-0.06573153
4	0xbd303e27	-0.043028023
5	0xbd47bedd	-0.048766006
6	0xbcec4c17	-0.028844876
7	0x3d5a873c	0.053351626
8	0x3d4f9a54	0.05068429
9	0xbd51dac6	-0.05123403
10	0xbd0f170b	-0.034934085
11	0xbd3e13a7	-0.04640546
12	0xbd44ab49	-0.048014913
13	0xbcdfed0e	-0.027334716
14	0xbd805982	-0.06267072
15	0xbcc955ef	-0.02457711
16	0xbcb0bf25	-0.02157552
17	0xbd166909	-0.036721263
18	0xbd1512bc	-0.03639482
19	0x3d4aa047	0.04946926
20	0x3d03993b	0.032128554
21	0x3d2dcf34	0.042433932
22	0xbcd45242	-0.02591813
23	0xbcd8d86f	-0.026470391
24	0xbd57b710	-0.052664816
25	0xbce79417	-0.028268857
26	0x3cb86bef	0.022512404
27	0xbd5291d8	-0.05140862
28	0xbd1656f0	-0.036704004
29	0x3b884190	0.0041582063
30	0x3d46b96b	0.048516672
31	0x3d396a78	0.045267552
32	0x3d5e6a86	0.054300807
33	0xbcf0bde7	-0.029387427
34	0x3ca87294	0.020562448
35	0x3c34ba9e	0.011030821
36	0xbcf418e5	-0.029797027
37	0x3d1d062f	0.038335975
38	0xbd63fd13	-0.055661272
39	0x3d5c66c1	0.05380893
40	0xbcf57c8a	-0.029966611
41	0xbcf0e2e6	-0.029405069
42	0x3c08f72d	0.008359713
43	0xbd2a5390	-0.041583598
44	0xbc0f9044	-0.008762423
45	0xbd388850	-0.045051873
46	0x3d93e457	0.07221287
47	0x3d3d693a	0.04624293
48	0x3d304479	0.04303405
49	0x3d813954	0.063097626
50	0xbd29a9c1	-0.041421656
51	0x3cdc9684	0.02692724
52	0x3d453d8d	0.048154403
53	0xbcd49a7b	-0.025952568
54	0xbd12d370	-0.035846174
55	0x3d766436	0.060154162
56	0xbd24dde4	-0.040250674
57	0x3d24cc7f	0.040234085
58	0xbc6a0c4e	-0.01428516
59	0xbd064441	-0.032779936
60	0xbcfa4587	-0.030550731
61	0xbd2a1460	-0.041523337
62	0x3d86d453	0.065834664
63	0x3d061fe5	0.03274526
64	0xbd1f2f8b	-0.0388637
65	0xbd99b2ba	-0.075047925
66	0xbd1e00ac	-0.03857486
67	0xbce079a1	-0.027401747
68	0xbd6828b2	-0.056679435
69	0x3297e81d	1.7684266e-08
70	0xbc3c128a	-0.011479029
71	0xbca8881c	-0.020572715
72	0x3d49926d	0.049211908
73	0xbd1ef0e7	-0.03880396
74	0xaac04b3e	-3.415826e-13
75	0xbd3206c7	-0.043463495
76	0x3c15a4f5	0.009133567
77	0xbd1d2180	-0.038362026
78	0x3d4c43b4	0.049869254
79	0x3d1730f4	0.03691192
80	0xbd53033e	-0.051516764
81	0x3d278cba	0.04090569
82	0x3cc4fa78	0.024045214
83	0xbd3c44bd	-0.04596399
84	0x3cc4cdf3	0.024023985
85	0x3daf6283	0.085637115
86	0x3daa0382	0.0830145
87	0x3cdd6907	0.02702762
88	0xbccdbba1	-0.025113882
89	0x3d2af77d	0.04173993
90	0xbd459524	-0.048237935
91	0x3d6a4a28	0.057199627
92	0x3d181ce7	0.03713694
93	0xbd0d30cf	-0.034470376
94	0xbd6b9722	-0.05751718
95	0x3d8c5d0c	0.06853685
96	0x3d413e19	0.04717836
97	0xbd2aa0a4	-0.041657105
98	0xbced211b	-0.02894645
99	0x3d313d7d	0.04327153
100	0xbd193514	-0.037404135
101	0xbcc15a28	-0.02360256
102	0xbca4469e	-0.020053204
103	0x3d4c8ec0	0.049940825
104	0xbd1a53ee	-0.037677698
105	0xbd4e2f48	-0.05033806
106	0x3d2951b6	0.04133769
107	0xbd34b28c	-0.044115588
108	0x3c800301	0.015626432
109	0x3d55b87a	0.052177884
110	0x3d2b5d4c	0.04183702
111	0xbd969f71	-0.0735463
112	0x3d6d5bff	0.057949062
113	0x3ca73937	0.020413024
114	0x3cbfa61b	0.023394635
115	0xbd037fd1	-0.032104317
116	0xbd4c656c	-0.04990141
117	0xbcdd06a1	-0.0269807
118	0xbd2cec21	-0.042217378
119	0xbd0ef81e	-0.03490459
120	0xbd4626d2	-0.048376866
121	0x3ca2e5e4	0.019885011
122	0xbd4038cf	-0.046929177
123	0xbd05d43d	-0.03267311
124	0xbd3a971a	-0.045554258
125	0xbd8cdaeb	-0.06877693
126	0xbd4e79ef	-0.050409254
127	0xbcd273d2	-0.025689993
128	0xbd2529e5	-0.040323157
129	0xbd18c2e2	-0.03729523
130	0xbcdc5e10	-0.026900321
131	0x3d810fab	0.063018166
132	0x3d278dc9	0.0409067
133	0x3cffaad4	0.031209387
134	0x3ce2bd60	0.027678192
135	0xbcbf9b6f	-0.023389546
136	0xbcf0cded	-0.029395068
137	0x3d96ed59	0.07369489
138	0x3d0236bd	0.031790484
139	0x3d4d657c	0.05014561
140	0x3d07da07	0.03316691
141	0x3c970dd8	0.018439218
142	0x3d69cd80	0.057080746
143	0x3c9b1c49	0.018934386
144	0x3d7e1173	0.06202836
145	0x3cc7fab3	0.024411535
146	0x3d5d7fa6	0.054076813
147	0xbd542e10	-0.05180174
148	0xbd517ec3	-0.05114628
149	0xbd41d7c9	-0.04732493
150	0x3d5f6ab5	0.054545123
151	0x3d0ef844	0.034904733
152	0x3d002ec9	0.031294618
153	0x3d0b7955	0.034051258
154	0xbd34016b	-0.043946665
155	0x3d44851f	0.047978517
156	0xbd7a0803	-0.061042797
157	0xbd109dac	-0.035306618
158	0xbcc69925	-0.024242947
159	0xbd0fbf42	-0.035094507
160	0xbcfa6024	-0.030563422
161	0x3d3beff5	0.045883138
162	0xbceec148	-0.029144898
163	0xbd18f423	-0.037342202
164	0x3d176b93	0.036967825
165	0xbd06378b	-0.032767814
166	0x3d4d8a20	0.050180554
167	0xbd30479f	-0.043037053
168	0x3c82e8c1	0.015980126
169	0x3cf191c0	0.029488444
170	0xbcf4c5dd	-0.029879505
171	0x3d04192f	0.03225058
172	0x3d154bcf	0.03644925
173	0x3d0e4e75	0.03474279
174	0xbd2c1335	-0.042010505
175	0xbd0545b9	-0.032537196
176	0xbd6a66da	-0.057226993
177	0xbc91a282	-0.017777685
178	0x3d3c9d53	0.046048474
179	0xbd1e5174	-0.0386519
180	0xbd017935	-0.031609733
181	0xbb0ca711	-0.0021461884
182	0x3d7278f1	0.05919737
183	0xbcfa2c61	-0.03053874
184	0x3d33c0ac	0.043884918
185	0xbd078af1	-0.03309149
186	0x3cd2bde4	0.025725313
187	0x3d2cb541	0.042165045
188	0x3cce0bc0	0.025152087
189	0x3ccb1f8b	0.024795314
190	0xbca51f54	-0.02015654
191	0xbd3131af	-0.043260273
192	0x3d910874	0.070816904
193	0xbd5cc103	-0.053895008
194	0x3d4b23b2	0.04959459
195	0x3d4d43dc	0.050113544
196	0x3d0a109a	0.03370724
197	0xa6cb059c	-1.4087475e-15
198	0x3d32ba53	0.043634724
199	0x3cc4f737	0.024043662
200	0xbd1f24f9	-0.03885362
201	0x3cf221fb	0.029557219
202	0x8ff9e4c1	-2.4641408e-29
203	0x3cf2f4e8	0.029657796
204	0xbd01a226	-0.031648777
205	0x3c6ff394	0.014645476
206	0xbd125856	-0.035728775
207	0xbccbc52e	-0.024874296
208	0xbd5787be	-0.05261969
209	0xbcd8835b	-0.026429823
210	0xbd3e9b2f	-0.046534713
211	0x3c8bd6cc	0.017070197
212	0xbcb8833a	-0.022523511
213	0xbd3a187e	-0.045433514
214	0xbccbb5a2	-0.024866883
215	0xbcd72ccc	-0.026266478
216	0x3d46c196	0.04852446
217	0xbd1fff4b	-0.039061826
218	0xbd4e4c5d	-0.050365794
219	0xbd52cb08	-0.051463157
220	0xbd151ce5	-0.03640451
221	0x3d44aa01	0.04801369
222	0x3d388b64	0.04505481
223	0xbd42840f	-0.047489222
224	0xbc3270ec	-0.0108911805
225	0x3ced3070	0.02895376
226	0x3c489041	0.012241424
227	0xbcb78ddb	-0.02240651
228	0x3d4887cc	0.04895763
229	0x3d2380e8	0.039917856
230	0x3cf99f9f	0.030471621
231	0xbd21a301	-0.039462093
232	0x3ce79c2d	0.028272713
233	0xbca7c386	-0.020478975
234	0xbd2746df	-0.040839072
235	0x3d1b3e9f	0.037901517
236	0xbd248e09	-0.040174518
237	0xbd0ddced	-0.03463452
238	0xbd0c79af	-0.034295734
239	0x3d8a31ea	0.067478016
240	0xbcdf9388	-0.027292028
241	0xbc6390f0	-0.013889536
242	0xbd249bf0	-0.040187776
243	0x3d06dd70	0.032926023
244	0x3d43a3a6	0.04776349
245	0x3d495fee	0.04916375
246	0x3d119f10	0.035552084
247	0x3d94d83f	0.07267808
248	0x3d2f60f3	0.042817067
249	0xbd318e19	-0.043348406
250	0x3d0d2d0e	0.034466796
251	0x3d11f798	0.035636514
252	0x3d49046b	0.04907648
253	0xbd05301e	-0.03251659
254	0x3d37ddfd	0.04488944
255	0x3c67cc6d	0.01414786

fc2.bias f4 [64]
0	0x3cbf4827	0.023349835
1	0x3c47d587	0.012196905
2	0x3c8da87b	0.017292252
3	0x3cd5ead4	0.026112951
4	0x3ca62156	0.020279568
5	0x3c6de6c0	0.014520347
6	0x3bd1e638	0.006405618
7	0x3c8c5edb	0.017135074
8	0x3c76d2d9	0.015064918
9	0x3c94a094	0.018142976
10	0x3cb1b704	0.021693714
11	0x3cac478f	0.021030216
12	0x3cc812bf	0.024423001
13	0x3c94f149	0.01818146
14	0x3c396c2b	0.011317293
15	0x3ca57a0f	0.020199804
16	0x3c3d5abd	0.011557278
17	0x3c0cd2fd	0.008595225
18	0x3c4c82ce	0.012482358
19	0x3c7d7c52	0.015471535
20	0x3c8e999a	0.017407227
21	0x3c948f05	0.018134603
22	0x3cae82d1	0.021302612
23	0x3c518293	0.012787479
24	0x3c24aa19	0.01005032
25	0x3c5be5a7	0.013421453
26	0x3c187b38	0.009306721
27	0x3c8c7c5b	0.017149141
28	0x3ca8ecfc	0.020620815
29	0x3cbea7d0	0.023273379
30	0x3ce543b5	0.027986387
31	0x3ca35938	0.019940004
32	0x3ca5fbec	0.020261727
33	0x3c40b422	0.011761697
34	0x3c84a734	0.01619301
35	0x3c9060d9	0.017624306
36	0x3cb1ffc6	0.021728408
37	0x3c1e7dac	0.009673517
38	0x3c80f559	0.01574199
39	0x3c33e851	0.0109806815
40	0x3be16687	0.0068786773
41	0x3c37f598	0.011227988
42	0x3c92d2d3	0.017922794
43	0x3c4f7e61	0.012664408
44	0x3c98e420	0.018663466
45	0x3c943806	0.01809312
46	0x3c9f08e1	0.019413413
47	0x3c7b457e	0.015336392
48	0x3cafc630	0.021456808
49	0x3c09d369	0.0084122205
50	0x3cb0cb62	0.021581355
51	0x3c226c42	0.009913506
52	0x3caf1758	0.021373436
53	0x3ca21b45	0.019788394
54	0x3c46a20f	0.012123599
55	0x3ca247d2	0.019809637
56	0x3c245c53	0.010031777
57	0x3c28eaa5	0.01030985
58	0x3c872893	0.01649884
59	0x3c9876bc	0.018611304
60	0x3caffe26	0.021483492
61	0x3c678886	0.014131671
62	0x3c6020e3	0.013679716
63	0x3c887dac	0.016661488

fc3.weight f4 [1, 64]
0	0x3ec5b11e	0.38611692
1	0xbeb13814	-0.34613097
2	0x3ea42d27	0.32065699
3	0x3eb226de	0.34795278
4	0x3ebfd1b6	0.37464684
5	0x3ea46e18	0.32115245
6	0xbe9708f8	-0.2949903
7	0x3ea2fc1b	0.31832966
8	0xbeaa16a4	-0.33220398
9	0x3ea0b8af	0.31390902
10	0x3ea9269c	0.3303727
11	0x3ecc3469	0.39883736
12	0x3ec52c3d	0.38510314
13	0xbeb2439d	-0.3481721
14	0xbec08f9f	-0.37609574
15	0x3ecbb01d	0.397828
16	0xbe9f34e7	-0.3109505
17	0xbe96bad3	-0.2943941
18	0xbeb00233	-0.34376678
19	0xbea7f885	-0.32806793
20	0xbeab3d71	-0.33445314
21	0x3ea46020	0.32104588
22	0x3ecd3f21	0.40087226
23	0xbe9d421d	-0.30714503
24	0xbe93104b	-0.28723368
25	0xbeac9e30	-0.33714437
26	0xbe96bb7f	-0.29439923
27	0xbeab4525	-0.3345119
28	0x3eafbf2b	0.34325537
29	0x3eb88e22	0.3604594
30	0x3eb281cc	0.34864652
31	0x3ea78f84	0.3272668
32	0xbeaa8b02	-0.3330918
33	0xbe99b99d	-0.30024424
34	0x3ea09fb3	0.3137184
35	0xbea95167	-0.33069918
36	0x3eb37cbe	0.35056108
37	0xbe9a57a2	-0.30144984
38	0xbeb2831d	-0.34865656
39	0xbe9376ba	-0.2880152
40	0xbeba8f2f	-0.36437365
41	0xbe92143e	-0.2853107
42	0xbea1b362	-0.3158217
43	0xbe9be342	-0.3044682
44	0x3ea8c4b6	0.3296258
45	0x3ea8958f	0.32926604
46	0x3ebc39ae	0.36762756
47	0x3ea28aa1	0.3174639
48	0x3ea794be	0.3273067
49	0xbe96f5fc	-0.29484546
50	0x3ebc6c88	0.36801553
51	0xbe9733fe	-0.29531854
52	0x3eaead8d	0.34116784
53	0xbeb8402b	-0.35986456
54	0x3ea3c9f7	0.31990024
55	0x3ea23a30	0.3168502
56	0xbe94f575	-0.2909352
57	0xbe9f3d8a	-0.31101638
58	0xbeb342d1	-0.35011914
59	0x3ec0145e	0.3751554
60	0x3ebb132f	0.36538073
61	0x3ea7de32	0.3278671
62	0xbe9cf78c	-0.30657613
63	0xbeb471ef	-0.35243174
