trained_uttt_model.pth (torch, 166786 bytes, 13 tensors)

fc1.weight f4 [128, 243]
000000 e5 43 e4 bb b4 1c 8d bc fc 94 f4 bc 31 6b bf 3d
       -0.0069661015 -0.0172256 -0.029856198 0.09346617
000010 76 d9 44 bd 4f da 15 3d 1f c5 d5 3c 28 c8 90 bb
       -0.04805895 0.03658515 0.026094971 -0.0044183917
000020 73 0a be bc a6 fa 46 bd 8a ca 16 3d 6b 3d c4 bb
       -0.023198342 -0.04857888 0.03681425 -0.005988767
000030 97 6f 99 bc d1 5c 04 3d f3 1e 5b bd a8 26 64 bd
       -0.018729968 0.03231508 -0.053496312 -0.055700928
000040 53 2f 05 bc a9 b8 88 3d 0b 7d 5a 3a 21 70 f9 bc
       -0.008128959 0.06675846 0.0008334673 -0.030448975
000050 32 e9 8d 3d d3 4c 16 3c 34 61 36 bc 74 5d 0d 3d
       0.06929244 0.00917359 -0.0111315735 0.034512952
000060 61 a7 9e 3d 5b 5a 44 bd 05 40 58 bd e2 ff 0e 3b
       0.07746769 -0.047937732 -0.05279543 0.0021819999
000070 f4 b9 4b bc 02 43 d3 bb 7b 0e 85 3d 13 2a 5e bd
       -0.012434471 -0.006447197 0.064969026 -0.054239344
000080 a6 5d 80 3c 9b 3d 2b bc 16 ec 40 bd 99 cc 07 bd
       0.015669655 -0.0104517 -0.04710015 -0.033154104
000090 b7 4f ba bc a1 04 6d bd a7 19 c7 3d f4 c1 48 3d
       -0.02274309 -0.057865743 0.0972169 0.049013093
0000a0 da 0b a7 bc f2 53 27 3d c4 e3 5d 3c a9 31 51 bc
       -0.020391393 0.04085154 0.013543073 -0.012768188
0000b0 0b 04 6c 3b f8 24 1d 3c b7 7a 0c bc 22 c3 3e bc
       0.0036013152 0.009591334 -0.008574179 -0.011643203
0000c0 cc 39 90 3d f0 ab f2 bc 34 52 76 3c 23 ac ca bb
       0.07042274 -0.029623002 0.015034247 -0.006185071
0000d0 c4 40 8b bc a5 52 a6 3c 39 2b e0 3c 59 fc 12 3d
       -0.016998656 0.02030308 0.02736436 0.03588519
0000e0 c8 f4 28 3c 2a 29 28 3c 98 ec c5 bd a5 44 f7 3c
       0.010312267 0.0102637205 -0.09664267 0.0301841
0000f0 fa 0c 24 3d e1 9c f6 bb 51 f1 54 3d 45 ed 0a bd
       0.040051438 -0.0075260256 0.05198795 -0.033917684
000100 c5 23 e6 39 6b 4b da 3c cc 14 9e 3d 48 e7 12 bd
       0.0004389567 0.02664729 0.077188104 -0.0358651
000110 9d 25 04 3d 76 8d ec bb 12 b4 da bd cf ca ae 3d
       0.032262433 -0.007219012 -0.10678877 0.085347764
000120 72 a5 e8 bc 82 85 68 bd e9 b9 e8 3c bf ad 73 3d
       -0.028399203 -0.056767948 0.028408961 0.05949187
000130 8d f9 55 bd ea 92 88 3d 47 b1 97 3d c6 2b 91 3c
       -0.052239943 0.06668647 0.0740686 0.017721068
000140 0a 49 c5 bd c1 d8 56 3d dc 81 c7 bd d4 43 cb bc
       -0.09633072 0.052452806 -0.097415656 -0.024812616
000150 3f 45 80 3c 14 4c 80 bc 96 d2 11 bc b1 fe 9e 3d
       0.01565802 -0.015661277 -0.008900305 0.07763422
000160 04 e1 5d bc d4 b4 4a 3b fd cf 22 bd 15 3b bd 3c
       -0.013542417 0.0030930536 -0.039749134 0.023099462
000170 07 d9 09 3d cc 9c 42 3d 2b b5 88 bb 13 37 34 3c
       0.03365424 0.047512814 -0.0041719875 0.010999459
000180 a0 f4 69 bc 78 b5 4e bd 9e 15 8e bc 45 48 4a bd
       -0.014279515 -0.05046603 -0.017344292 -0.049385328
000190 49 55 a9 3c 48 81 8a 3c 30 7f b2 bb 09 97 a2 bd
       0.02067055 0.01690735 -0.005447291 -0.07938964
0001a0 c7 95 a9 3c da 6a fe 3c 3a 6b d8 bc 93 66 ea 3c
       0.020701302 0.03105681 -0.026418317 0.028613364
0001b0 f7 10 44 bd c1 82 2d 3d 03 73 3d bd 43 29 1a 3d
       -0.04786774 0.042361025 -0.04625226 0.037637006
0001c0 49 02 2d 3d 2f 79 48 3b 08 44 35 bd 2e ab e2 bc
       0.042238507 0.003058981 -0.044254333 -0.027669515
0001d0 cb b3 cc bc 5f ec 1b bd f7 ef b1 3c f7 25 b9 bc
       -0.024988076 -0.038067218 0.02172087 -0.02260111
0001e0 f1 0c 64 bb 15 68 cc bd a9 8f 14 bd 3b 98 20 bd
       -0.0034797753 -0.099807896 -0.036269818 -0.03920768
0001f0 37 e4 5d bd e3 d7 88 3c f9 41 56 bd 9f e7 33 3d
       -0.05417272 0.016704505 -0.05230901 0.043922063
000200 91 94 56 bc 8b 07 11 3d be 81 cf 3a 38 9d 49 bc
       -0.013096944 0.035407584 0.0015831513 -0.01230555
000210 8e b7 6a 3d 74 cb 97 3c 02 e0 1a 3d c5 e3 1b bd
       0.057303958 0.018529631 0.037811287 -0.038059015
000220 b1 01 78 bd 01 79 6b 3d 84 2d e2 bb a3 59 b1 bc
       -0.060548488 0.057488445 -0.0069023985 -0.021649187
000230 e6 16 b8 3c d3 19 08 bd 68 ec 3f 3d 65 1b ec 3c
       0.022471856 -0.033227753 0.046856314 0.028821656
000240 9a 44 76 3d 7f 28 f3 bc 2b 7c c2 3d d9 b3 67 bd
       0.060124017 -0.029682396 0.094963394 -0.056568
000250 e5 de 21 bd 34 31 76 3b 69 8c b3 bb 58 ba ca 3c
       -0.03951921 0.0037565948 -0.0054793847 0.024747059
000260 ed 85 33 3d 8d 7c 56 3b e9 d8 a3 bd fa 85 d4 3d
       0.043828893 0.0032728047 -0.08000357 0.103771165
000270 1d f8 1f bc 40 97 3e bd d3 74 d6 bc 88 2e 25 3c
       -0.009763745 -0.046530962 -0.026178753 0.010081895
000280 7a 5b 28 bd 08 fd 7c bd b6 36 bd 3c e2 0d 22 3c
       -0.041102864 -0.061764747 0.023097377 0.009891005
000290 2f 2d 14 bc e4 c9 6e 3c 33 97 6d bc f2 f9 ab 3c
       -0.009043976 0.014574502 -0.014501381 0.020993207
0002a0 36 43 41 3d 89 cd ae bd b2 68 83 bb 4d ea ad 3c
       0.047183238 -0.085352965 -0.0040102834 0.021229887
0002b0 b5 c5 66 bc 28 63 a2 3b 92 6f 97 3c ce 4f bb 3c
       -0.014085223 0.004955668 0.018485818 0.022865202
0002c0 42 83 8a bd cf 3a 59 bd ef d7 13 bb 25 25 05 3b
       -0.06763317 -0.0530346 -0.0022559126 0.002031633
0002d0 8a 25 33 bb c0 6e a6 bb 86 f8 d7 3c 9e e4 9d bc
       -0.0027335607 -0.0050791204 0.026363622 -0.019274052
0002e0 76 2b 15 3d 60 a4 42 3d 9c 96 59 bc 0c e5 f4 bc
       0.0364184 0.04752004 -0.013280537 -0.029894374
0002f0 a5 df 10 3d cf fb 2a bd 7f 26 c6 bd 22 5f 37 3d
       0.035369534 -0.04174405 -0.09675311 0.04476846
000300 0d 50 9c 3d b7 09 10 bd 3f 43 f7 3c be f8 68 3c
       0.07632456 -0.035165515 0.030183433 0.014219461
000310 f6 8a 8e bc e0 53 2c 3d 98 6a 44 bd 71 ec 0f bc
       -0.017400246 0.042072177 -0.04795322 -0.008784399
000320 81 1f 34 3d 02 6a a5 3d 42 e6 ce 3c d1 8d 10 bd
       0.043975357 0.0807686 0.02525628 -0.035291497
000330 d0 75 9a bc 62 ba ca bc 47 b8 99 bb a4 09 cb bd
       -0.018855006 -0.024747077 -0.004691157 -0.09913948
000340 cb 6c 12 3d 61 cb 38 3d c7 01 62 3c 1b 44 3e 3d
       0.035748284 0.045115832 0.013794369 0.04645167
000350 05 ca 38 3d eb e6 46 bd 1d b1 03 3c 48 ad 8e 3d
       0.045114536 -0.048560064 0.008037833 0.069666445
000360 ab 2e 78 3c 44 10 1d 3d f2 07 1c 3d 21 21 92 bc
       0.015147845 0.03834559 0.038093515 -0.017838063
000370 0f ef 92 bd f7 b6 06 bc 85 11 f5 3b 1e 19 45 bd
       -0.07174503 -0.008222333 0.007478895 -0.048119657
000380 4a 7d 8b 3c 3f 24 74 bd e9 42 89 3d 3b fe d2 3d
       0.017027516 -0.05960488 0.06702215 0.10302397
000390 e2 e9 15 bd 0f e9 00 bc 0f 14 cd 3c 4a b3 6e 3d
       -0.0366 -0.0078680655 0.025033979 0.058276452
0003a0 18 55 a5 bc cf 7a dd 3a e1 2e a0 bd 1a 00 06 3d
       -0.020182177 0.0016897562 -0.078214414 0.03271494
0003b0 16 ed 8e 3d 1e 77 86 bc 0f ba b2 3c cf 5f 08 3d
       0.06978814 -0.016414221 0.021817235 0.033294495
0003c0 ea 5d 9b 3c e6 9f f3 bc bd 39 d6 3c a2 c0 b0 bc
       0.01896568 -0.029739331 0.026150579 -0.02157623
0003d0 f7 58 96 3c 05 60 4f bb 4e ea 50 bd 3c 83 20 3d
       0.018352969 -0.0031642925 -0.0510047 0.039187655
0003e0 16 36 b5 bc ce 93 49 bc 90 ec 81 3d 88 d7 02 3d
       -0.022120517 -0.012303306 0.06343949 0.031943828
0003f0 64 df 92 bb 7e 98 4a 3c a3 d7 84 3b d0 a9 d4 bc
       -0.0044821966 0.0123654585 0.004054026 -0.02595988

fc1.bias f4 [128]
000000 56 de 29 37 06 b8 9f 36 f7 c8 4b b7 80 0b 32 34
       1.0124952e-05 4.7599924e-06 -1.2146534e-05 1.6581726e-07
000010 5c 2e 65 36 40 ff 01 37 74 eb 8a 36 c1 d3 a3 36
       3.4150644e-06 7.748429e-06 4.140131e-06 4.88243e-06
000020 84 5b bc 36 38 e8 e8 35 ad 28 5b 37 8c a4 3d 36
       5.6134904e-06 1.7352932e-06 1.3062888e-05 2.8258974e-06
000030 93 06 44 b7 f2 97 eb 36 a0 35 45 36 d2 20 4b 37
       -1.1684041e-05 7.0212345e-06 2.9386501e-06 1.21073845e-05
000040 dc 40 ae b7 01 ea 74 37 52 9a 0f b7 40 6e ad b4
       -2.0772619e-05 1.4598017e-05 -8.559395e-06 -3.2303979e-07
000050 26 fd 83 b5 9f 0a 3a b7 3e 45 68 b7 71 90 16 b6
       -9.833936e-07 -1.1088937e-05 -1.3844399e-05 -2.2435818e-06
000060 96 e3 ee b6 54 54 46 b7 c9 41 f1 b6 d8 85 aa 36
       -7.119447e-06 -1.1821354e-05 -7.190018e-06 5.0819763e-06
000070 91 d3 ba 36 62 ce 00 38 6a 73 6c b7 5a 2b d1 36
       5.5678615e-06 3.0709787e-05 -1.4093568e-05 6.233732e-06
000080 11 38 89 36 4c 61 d8 b7 69 5a 6f b7 e6 1b 64 b7
       4.089445e-06 -2.5794514e-05 -1.426656e-05 -1.3596355e-05
000090 17 f0 1a 36 4a b3 d5 36 91 6c 80 37 74 28 61 b7
       2.308754e-06 6.3687667e-06 1.5309344e-05 -1.3420464e-05
0000a0 3b 24 88 b6 f2 68 1d b7 fa f7 52 37 a6 61 4a b6
       -4.0573336e-06 -9.382364e-06 1.2574712e-05 -3.0157184e-06
0000b0 9d c1 8f b6 56 dc cf 36 9d 82 d0 b6 e3 df 65 36
       -4.2842717e-06 6.194731e-06 -6.2140884e-06 3.4253978e-06
0000c0 f6 64 93 b7 5a 85 8f b7 07 48 1c b7 3b 69 87 b7
       -1.757078e-05 -1.7109025e-05 -9.315095e-06 -1.6142256e-05
0000d0 a2 fa f6 36 64 ab 16 b6 b2 c6 bf 37 5e 77 b6 36
       7.360549e-06 -2.2451504e-06 2.2861499e-05 5.437919e-06
0000e0 a3 15 8a b7 cd 20 7f 36 f4 05 7d 36 34 49 83 35
       -1.6460957e-05 3.8017054e-06 3.7703403e-06 9.781565e-07
0000f0 0f 4c c3 36 bc 62 85 36 f8 b7 8c 37 07 0e 69 37
       5.8203073e-06 3.975203e-06 1.6774968e-05 1.3891148e-05
000100 b5 6c c2 b6 5b 35 c7 37 06 e4 27 37 26 29 e4 b7
       -5.7943057e-06 2.3747494e-05 1.00070665e-05 -2.719888e-05
000110 6e 2c cc 36 fe 58 7c b7 07 f6 94 b6 ac 94 41 b7
       6.084846e-06 -1.5041091e-05 -4.439385e-06 -1.1538312e-05
000120 86 1a 40 b5 42 4c ba b6 59 a3 4e b7 80 df 7d b7
       -7.156417e-07 -5.5521095e-06 -1.2316589e-05 -1.5132013e-05
000130 7f e9 6f 37 e4 35 41 37 e2 95 1a b5 f4 6d 59 b7
       1.4299875e-05 1.1516244e-05 -5.758758e-07 -1.2959808e-05
000140 7c fb de 36 bc 48 82 b7 3e 0a 4e b7 fc 9c 14 37
       6.645392e-06 -1.5531077e-05 -1.22809415e-05 8.858038e-06
000150 02 c5 3e b6 9f f1 f5 b7 d0 a3 09 b7 84 5d 93 b5
       -2.842688e-06 -2.931879e-05 -8.203977e-06 -1.097957e-06
000160 8c df 80 b7 80 34 6b 33 81 b3 9d 37 a0 86 7f b4
       -1.5362886e-05 5.476295e-08 1.8799446e-05 -2.3797702e-07
000170 a9 26 ba 36 7d f9 31 37 a3 7c 52 b6 38 1c c0 b5
       5.5477326e-06 1.0608111e-05 -3.1364987e-06 -1.4313327e-06
000180 78 d1 50 b7 fe 7d 23 38 42 19 1c 35 1e 4d 52 b7
       -1.2446537e-05 3.8979568e-05 5.8151284e-07 -1.2534931e-05
000190 0e 69 ba 36 26 df ab b5 28 1a 41 b5 06 33 37 36
       5.555462e-06 -1.2805438e-06 -7.1936165e-07 2.7298825e-06
0001a0 63 67 06 b7 42 53 aa 36 f4 4f 10 36 30 24 12 b8
       -8.011094e-06 5.0760873e-06 2.150421e-06 -3.4842815e-05
0001b0 c5 92 d8 37 0c 13 2d b7 c6 f8 19 36 69 da b2 36
       2.5817551e-05 -1.0316038e-05 2.2943582e-06 5.3302397e-06
0001c0 fe cb bc 37 b6 59 f1 35 0f b1 76 b7 64 f4 e3 36
       2.2506338e-05 1.7982009e-06 -1.4703967e-05 6.793578e-06
0001d0 2a d8 2b 35 38 72 e0 34 01 be 8b b7 fc c2 a3 34
       6.4017024e-07 4.1806356e-07 -1.6658569e-05 3.0502986e-07
0001e0 3e e0 97 b7 e0 f9 e8 34 e4 17 ea 36 28 a2 e8 37
       -1.8105024e-05 4.3395175e-07 6.9765247e-06 2.7732065e-05
0001f0 6e cb 97 36 78 7b ab b7 58 40 bc 36 a4 8c 8e 36
       4.523833e-06 -2.0442283e-05 5.610327e-06 4.2483025e-06

bn1.weight f4 [128]
000000 0e cd 18 3f cc 08 04 3f 21 71 35 3f 0c fe 40 3f
       0.5968789 0.5157592 0.70875746 0.75387645
000010 44 43 3a 3f 68 63 3e 3f 95 5c 39 3f 8e 22 33 3f
       0.7275889 0.7437043 0.72406894 0.699746
000020 00 f9 30 3f 48 cd 38 3f a0 a1 4a 3f f7 b6 31 3f
       0.69129944 0.72188234 0.7915287 0.6941981
000030 74 89 38 3f 4c fc 48 3f 8f 13 3b 3f 3e 96 41 3f
       0.72084737 0.78509974 0.7307672 0.75619876
000040 8d 26 3b 3f 9f 2c 2f 3f c3 56 3a 3f 47 49 40 3f
       0.731057 0.6842746 0.7278864 0.7511181
000050 7f f5 03 3f 6f 00 3a 3f 42 aa 47 3f 9e bf 25 3f
       0.5154647 0.7265691 0.7799417 0.6474551
000060 b2 8a 41 3f e1 86 39 3f 77 f5 39 3f 88 53 41 3f
       0.7560226 0.72471434 0.72640175 0.75518084
000070 b5 12 02 3f 4c d2 38 3f a3 06 3a 3f 3d c9 2c 3f
       0.50809795 0.7219589 0.72666377 0.67494565
000080 fa 68 40 3f f5 36 43 3f cb 71 3b 3f 2d c3 2f 3f
       0.7516018 0.7625573 0.7322051 0.6865719
000090 4c b9 43 3f 1f 58 42 3f 59 e3 20 3f 45 cf 38 3f
       0.76454616 0.7591571 0.62846905 0.7219127
0000a0 20 93 46 3f ec 93 3d 3f c6 a0 2e 3f 72 23 3f 3f
       0.77568245 0.74053836 0.6821407 0.7466346
0000b0 95 b7 3c 3f 2a 40 39 3f 39 af 3b 3f 27 31 38 3f
       0.73717624 0.7236353 0.73314244 0.7195
0000c0 d7 a8 3d 3f 95 ba 18 3f 35 e2 30 3f 95 60 40 3f
       0.74085754 0.596597 0.69095165 0.7514737
0000d0 1b f5 3e 3f bf 46 35 3f 38 2b 40 3f d9 a7 2a 3f
       0.7459275 0.70811075 0.75065947 0.66662365
0000e0 0b 38 44 3f 22 63 04 3f d1 9e fc 3e 46 73 3e 3f
       0.76648015 0.51713765 0.49339917 0.74394643
0000f0 d9 c3 3a 3f 4d 6e 3a 3f cc bb 43 3f c8 89 47 3f
       0.7295509 0.72824556 0.7645843 0.7794461
000100 1b d9 3d 3f 82 8c 40 3f 72 00 41 3f 1f 2b 3d 3f
       0.741594 0.752144 0.75391304 0.7389392
000110 81 1e 39 3f c5 27 3d 3f 66 c3 3d 3f 77 3c 45 3f
       0.7231217 0.7388881 0.7412628 0.7704539
000120 63 46 3d 3f c1 70 3d 3f 63 ac 3b 3f a0 bd 48 3f
       0.73935527 0.74000174 0.73309916 0.78414345
000130 60 ad 45 3f 4d 91 47 3f a0 00 35 3f b0 42 3e 3f
       0.77217674 0.77956086 0.7070408 0.7432051
000140 40 37 47 3f 16 2d 3e 3f 2c 97 46 3f e3 c7 3e 3f
       0.7781868 0.74287546 0.7757442 0.7452375
000150 a1 80 28 3f 17 d7 3a 3f 81 30 3a 3f 4a a6 08 3f
       0.6582127 0.7298445 0.7273026 0.53378737
000160 32 88 44 3f 2c aa 44 3f e1 ed 46 3f 6e 58 00 3f
       0.7677032 0.7682216 0.77706724 0.50134933
000170 b6 a9 3f 3f 46 e6 3d 3f c2 bf 3c 3f bf 4b 42 3f
       0.74868333 0.74179494 0.737301 0.7589683
000180 ce 83 4c 3f 3d c4 3f 3f bb 15 00 3f a0 17 42 3f
       0.7988862 0.7490881 0.5003316 0.758173
000190 c6 06 3b 3f 72 f9 35 3f 7c ce 36 3f 88 8b 2b 3f
       0.7305721 0.7108375 0.7140882 0.6700978
0001a0 0a e3 3d 3f 5e 90 49 3f 68 4a 3c 3f 32 62 3a 3f
       0.7417456 0.7873591 0.73551035 0.72806084
0001b0 03 fe 40 3f 0a 4d 3b 3f 01 ad 3f 3f bd a2 3d 3f
       0.7538759 0.7316443 0.7487336 0.74076444
0001c0 c3 53 38 3f 3f cd 19 3f 35 6f 3e 3f 7d 82 43 3f
       0.7200281 0.60078806 0.7438844 0.76370984
0001d0 4e 25 42 3f b8 65 16 3f f4 e5 3d 3f 91 ca 42 3f
       0.7583817 0.5874896 0.74179006 0.7609034
0001e0 a0 a3 40 3f 55 62 07 3f c8 e0 2e 3f 6f 28 33 3f
       0.7524967 0.5288442 0.6831174 0.6998357
0001f0 b0 5d 47 3f 82 86 2c 3f 7d a3 3d 3f 50 49 34 3f
       0.7787733 0.6739274 0.7407759 0.70424366

bn1.bias f4 [128]
000000 2e d1 c9 be d7 b4 a2 bd 1d 43 c1 be 4e 53 56 be
       -0.39417404 -0.07944649 -0.37746516 -0.20930216
000010 a5 1d 9c be f0 43 c2 be a5 94 a7 be cb f2 c3 be
       -0.30491367 -0.37942457 -0.32730594 -0.38271174
000020 9a fe d8 be eb 5a ae be a3 a0 a7 be f5 9c d7 be
       -0.42381746 -0.3405374 -0.32739744 -0.42111936
000030 1a 03 af be b0 bf 99 be 24 2d bf be 6f 3b bc be
       -0.34182054 -0.30029058 -0.37339127 -0.36764094
000040 b3 d7 b4 be 92 c4 c9 be 1d 35 a9 be c1 f1 67 be
       -0.35320815 -0.39407784 -0.33048335 -0.22650816
000050 98 e8 6a bd 24 ee ba be 6e 5c 8d be ed cf d4 be
       -0.057350725 -0.36509812 -0.2760958 -0.41564885
000060 23 9c 2e be 3a c5 c1 be df b3 b9 be 21 6f b7 be
       -0.17051749 -0.37845784 -0.36270043 -0.35826972
000070 da 78 e8 bd c4 35 83 be 1a 83 c3 be b6 b3 cf be
       -0.113511756 -0.25626957 -0.3818596 -0.40566796
000080 57 46 c4 be a3 45 48 be e0 89 a3 be cd 2d b4 be
       -0.38334915 -0.19557814 -0.31941128 -0.35191193
000090 2a 52 b6 be fd 19 8d be 94 82 e8 be 96 c0 b4 be
       -0.3560956 -0.2755889 -0.45412123 -0.3530318
0000a0 7e 07 b8 be 1e 80 7b be 2d 00 c1 be a3 0f 89 be
       -0.35943216 -0.24560592 -0.37695447 -0.26769742
0000b0 67 40 88 be 46 6a ac be f2 00 ee be ea ad c6 be
       -0.26611635 -0.3367483 -0.46485096 -0.3880456
0000c0 9f ab cf be ed d0 d2 be 38 d2 cc be de c4 2b be
       -0.40560624 -0.41175023 -0.40004134 -0.16774318
0000d0 c1 23 3f be 83 12 b7 be af 5b dc be 3d 20 a3 be
       -0.18665983 -0.3575631 -0.430387 -0.31860533
0000e0 9d 26 82 be 7f 13 a9 bd e5 bc 89 bd 26 90 c4 be
       -0.25420085 -0.08255672 -0.06725482 -0.38391227
0000f0 74 b1 c3 be bb 9c b2 be 3f 57 05 be f0 1c ce 3d
       -0.38221323 -0.348852 -0.13021563 0.10064113
000100 e7 96 a0 be cc aa b9 be 67 64 b6 be 02 29 c3 be
       -0.3136513 -0.3626312 -0.35623476 -0.38117224
000110 7c 13 85 be 3f 3b dd be c3 12 ba be 4b f1 d2 be
       -0.25991428 -0.43209264 -0.3634244 -0.41199717
000120 ed 09 89 be 04 41 b3 be 23 f3 9c be d0 92 b6 be
       -0.26765385 -0.3501054 -0.3065425 -0.35658884
000130 d4 65 ab be 3c d5 8b be 3c 84 ad be 20 06 d2 bd
       -0.33476126 -0.27311122 -0.3388995 -0.102550745
000140 63 fe dd be cc df a1 be 1b 4a b8 be 89 0e b9 be
       -0.43358144 -0.31616056 -0.35994038 -0.36143902
000150 6e 77 96 be d4 a8 b4 be 28 a4 d0 be 38 3f 29 be
       -0.29387993 -0.35285056 -0.4075024 -0.16528022
000160 c5 a9 9a be 7e 7f ac be fc 89 91 be 3e e9 d6 bd
       -0.3020765 -0.3369102 -0.28425586 -0.10493706
000170 dc 13 b4 be 82 d1 9b be 44 6b a1 be 64 9f 1a be
       -0.35171402 -0.3043328 -0.3152715 -0.15099865
000180 2b 6b 89 be 8e 45 a0 be b2 47 83 bd 18 07 a0 be
       -0.26839575 -0.31303066 -0.06410159 -0.31255412
000190 80 4f b3 be 65 20 a8 be 77 df c7 be 61 00 c6 be
       -0.3502159 -0.32837215 -0.39037678 -0.38672164
0001a0 9a de 9d be 9b 74 95 be 88 aa a5 be 35 2b b0 be
       -0.30833894 -0.29190525 -0.32356668 -0.34407964
0001b0 56 d0 b8 be 13 cf c0 be 58 4f c8 be f7 b4 cf be
       -0.36096448 -0.37657985 -0.39123034 -0.40567753
0001c0 87 08 a5 be 58 9f b6 be 47 d0 ab be 07 dd b6 be
       -0.32233068 -0.35668445 -0.3355734 -0.35715505
0001d0 47 ec a5 be 91 80 bc be 56 91 c6 be c0 5e ae be
       -0.32406828 -0.36816838 -0.38782758 -0.34056664
0001e0 30 29 a8 be e9 8e 19 bd eb 95 cf be ac b8 b5 be
       -0.32843924 -0.037489805 -0.40544066 -0.35492456
0001f0 ef 8c b1 be 27 ac a0 be 8b 83 9b be 96 b1 6e be
       -0.34677836 -0.31381342 -0.30373797 -0.23309931

bn1.running_mean f4 [128]
000000 c8 38 0a 3e c6 07 f9 be 03 86 04 bc 7a 9a cf 3e
       0.13498223 -0.48638743 -0.0080885915 0.40547544
000010 21 86 0e 3e 77 93 3b 3e 58 30 82 3e 88 9c 20 3e
       0.13918354 0.18317972 0.25427508 0.15684712
000020 93 8b 1f 3d aa 7c 9f 3d 3b 3b a2 3e a0 04 a3 bd
       0.038951468 0.0778745 0.31685814 -0.079598665
000030 c1 41 a4 3e 1e 34 07 be 1e 7f 0f 3e 26 01 d8 3e
       0.32081416 -0.13203475 0.14013335 0.42188376
000040 9d 82 8b 3e 73 bd ca 3d cd e4 93 3e ed 11 66 3d
       0.27248088 0.09899416 0.288855 0.05616944
000050 79 cc 32 bf 63 9e 50 3e 10 d3 df 3e 06 c7 92 3e
       -0.6984325 0.2037292 0.43715715 0.28667468
000060 6e 17 61 3e 17 36 46 3d 6f dd 5b 3e 3f 7c 56 bd
       0.21981594 0.048391428 0.21471189 -0.052364584
000070 34 9b 20 be 00 1c 57 3e 29 60 41 3e be 1f c5 bd
       -0.15684205 0.21006775 0.18884338 -0.09625195
000080 54 24 c5 bc 76 8c cd 3e b7 36 90 3e f3 7e df 3d
       -0.024065174 0.40146226 0.28166744 0.109128855
000090 d3 65 48 3e 03 4e 89 bc fc 56 5f 3e a2 46 79 3d
       0.19570093 -0.016760832 0.21810526 0.060858376
0000a0 7c 3a cb 3c e2 70 7b 3e e8 1d af 3e c2 dc c1 3e
       0.024808161 0.2455478 0.34202504 0.37863737
0000b0 e0 db 59 3d ea 3e b1 3e 97 cb 2c 3d 96 93 a8 3d
       0.053188205 0.34618312 0.042186346 0.08231275
0000c0 b2 de 77 3e 58 d8 58 bd 2f 5f 1b 3e 59 2c 08 3d
       0.24206045 -0.052940696 0.15173028 0.03324542
0000d0 80 cb 3d 3e b9 97 c3 3d d8 5c 97 3e b0 da 8c 3e
       0.1853466 0.09550423 0.29563022 0.27510595
0000e0 22 4e 8d 3e b8 dd 00 bf 2f 9e 4d bf d7 d0 56 bd
       0.27598673 -0.50338316 -0.80319494 -0.05244526
0000f0 c0 39 cc bd 41 88 a0 3c ee 7f 49 3e 7b 2d e5 3e
       -0.099719524 0.01959622 0.19677708 0.4476126
000100 c8 20 f5 3d 51 18 e7 3e cc b8 51 3d c3 01 a0 3e
       0.11969143 0.4513574 0.051201627 0.31251344
000110 b2 76 ba 3e dc c5 99 3d ea 08 ca 3e c6 56 fa 3e
       0.36418682 0.07508442 0.39459926 0.48894328
000120 f9 ff 34 3d 45 62 db 3e d8 96 31 3d 9a 6d 9d 3e
       0.044189427 0.4284841 0.043356746 0.30747682
000130 3e 29 93 3e 1b a8 e3 3e b5 e5 7a 3e 89 3e cb 3e
       0.28742403 0.44464192 0.24501689 0.39696148
000140 5f 0e 58 be c1 68 44 3e d2 b2 40 3d 93 aa f6 bc
       -0.21099232 0.19180585 0.047045536 -0.030110633
000150 44 7d de 3d 4c 0c 76 3e c3 39 15 3e 27 6b 99 be
       0.10863736 0.24028128 0.14572816 -0.29964563
000160 b2 d9 9a 3d b3 01 f2 3b 21 e0 a2 3e ae 50 f0 be
       0.07561053 0.0073854565 0.31811622 -0.46936554
000170 16 61 38 3d aa 47 29 3e 51 06 3f bc f4 4e a8 3e
       0.045014463 0.16531244 -0.011659221 0.32872736
000180 51 9f be 3e 71 92 ee 3d 9b d9 22 bf 7c b2 0b 3f
       0.37230924 0.11649025 -0.6361329 0.5456922
000190 01 81 36 3e 9e cb d5 3a 3f 62 16 3e 8a 36 9e 3e
       0.17822649 0.0016311293 0.14685915 0.30900985
0001a0 4d 4c 7a 3e b3 6a f1 3d e1 d0 35 be 0e 2c bb 3e
       0.24443169 0.117879294 -0.17755462 0.3655705
0001b0 42 d5 4f 3e d9 cb ba 3e 32 ef 8f 3e 31 98 ca 3e
       0.20296195 0.36483648 0.2811218 0.39569238
0001c0 c7 b0 6b 3e f4 d4 13 be 71 6e b0 3c 61 0e 80 3d
       0.23016654 -0.14436704 0.021537038 0.062527426
0001d0 67 d6 8d bd 0c bc b3 3d 56 a2 6b 3d 35 fa fe 3d
       -0.069256596 0.087761015 0.057527862 0.12450067
0001e0 ed 8b 67 3e 88 14 43 bf 42 64 89 bd 93 6b 81 bb
       0.22611971 -0.76203203 -0.06708576 -0.0039495914
0001f0 32 04 0b bc f3 81 8f 3e 58 d3 c4 3e 13 1e e9 3e
       -0.008484887 0.2802883 0.38442492 0.45530757

bn1.running_var f4 [128]
000000 8e 74 ad 3d 02 8a b5 3e 88 6a ea 3d 19 e8 13 3e
       0.08469497 0.35456854 0.114461005 0.14444007
000010 51 a9 f6 3d d5 21 cb 3d 91 19 e5 3d c7 83 f4 3d
       0.12044013 0.09918562 0.11186517 0.11939197
000020 e3 e7 ab 3d 22 e8 08 3e 94 8a 09 3e 43 39 ab 3d
       0.08393838 0.13369802 0.1343177 0.08360531
000030 ef 3f df 3d 1c 2e ed 3d 43 08 d0 3d b2 ad c8 3d
       0.10900866 0.1158106 0.10157826 0.09798755
000040 9d 74 e8 3d b0 fd fa 3d ee 0d d6 3d 65 aa 1d 3e
       0.11350367 0.12255418 0.104518756 0.15397032
000050 11 9c cb 3e 4b 02 ba 3d 64 25 0a 3e 08 84 b5 3d
       0.39767507 0.090824686 0.13490826 0.088630736
000060 bf 45 fe 3d 83 b5 d1 3d ff 43 f0 3d 73 26 00 3e
       0.12415647 0.10239699 0.11731719 0.12514667
000070 47 55 92 3e 11 ab ff 3d c9 cc b1 3d 3a b6 a4 3d
       0.28580686 0.124838 0.08681638 0.080425695
000080 b7 94 e7 3d 6b 4b 0f 3e a5 72 10 3e 38 9b d5 3d
       0.11307662 0.13993613 0.14106233 0.10429996
000090 32 64 f4 3d a5 e8 d7 3d 60 19 b2 3d 90 ab b5 3d
       0.11933173 0.1054242 0.08696246 0.088706136
0000a0 09 69 cf 3d af 1d 13 3e 21 dc ad 3d 11 6f 22 3e
       0.10127456 0.14366792 0.08489252 0.15862681
0000b0 ff ba 02 3e 58 28 04 3e 6b 6b cc 3d 5e e3 b2 3d
       0.12766646 0.12906015 0.09981426 0.08734773
0000c0 a5 28 e8 3d 1d c7 a0 3d 73 28 f0 3d 79 e5 24 3e
       0.11335877 0.07850478 0.11726465 0.16103162
0000d0 ee a0 22 3e e0 43 b6 3d 92 ae 09 3e 76 76 c1 3d
       0.15881702 0.08899665 0.134455 0.09446423
0000e0 8f c3 e1 3d 80 42 99 3e 4d a2 97 3e 5e b1 c4 3d
       0.11023628 0.29933548 0.29616013 0.096041426
0000f0 1f 35 d9 3d 8d bb d2 3d 8c 94 27 3e 4d 6e a9 3e
       0.10605835 0.10289679 0.1636526 0.33091965
000100 58 2a 01 3e d7 db 0b 3e d7 1c 0a 3e 76 46 d4 3d
       0.12613809 0.13658081 0.13487564 0.10365002
000110 c7 a0 0c 3e af 7c d5 3d 81 6d cf 3d 41 d9 e5 3d
       0.13733207 0.10424172 0.10128308 0.112230785
000120 4b 27 1c 3e 16 7a d1 3d 03 8b fa 3d 80 1d f0 3d
       0.15249364 0.10228364 0.12233546 0.11724377
000130 59 cc f0 3d 3e ed 0a 3e bb 8b ec 3d 2c c5 34 3e
       0.11757726 0.13567063 0.11550089 0.1765334
000140 44 03 f6 3d 13 24 0a 3e 5e 67 ce 3d ad b1 ac 3d
       0.120123416 0.13490324 0.100783095 0.084323265
000150 5e 60 dd 3d e2 ee b2 3d ac 23 f8 3d 81 16 2a 3e
       0.10809396 0.087369695 0.12116179 0.16610147
000160 13 5e f3 3d 66 ee e9 3d 5d 61 19 3e 15 f7 a2 3e
       0.118831776 0.11422424 0.14978547 0.31829134
000170 e0 11 da 3d 16 e8 0a 3e 5d 1e 0d 3e 03 27 35 3e
       0.10647941 0.13565096 0.13781114 0.17690663
000180 ac a2 22 3e cd 7b 08 3e 1a eb 9d 3e 7f 29 0b 3e
       0.15882367 0.13328476 0.3084343 0.13590048
000190 9b 85 c5 3d 61 18 ef 3d a0 20 df 3d 71 f0 e6 3d
       0.09644624 0.11674572 0.108948946 0.11276329
0001a0 d0 51 de 3d 90 4d fe 3d 5e 1a de 3d cb bf c3 3d
       0.10855448 0.124171376 0.10844873 0.09558066
0001b0 9d fa 00 3e 14 ff da 3d 6f 1f e8 3d c6 54 bd 3d
       0.12595601 0.106931835 0.113341205 0.09244685
0001c0 17 97 af 3d d6 fa 98 3d 10 8e ee 3d e8 ba ec 3d
       0.0857374 0.07469718 0.1164819 0.11559087
0001d0 b5 bd 00 3e 0e 1f a3 3d c2 9c f5 3d 93 c0 03 3e
       0.12572367 0.079649076 0.1199279 0.1286643
0001e0 e8 47 ca 3d d0 30 ac 3e ca 6c a6 3d 3c 54 cb 3d
       0.09876996 0.3363099 0.081262186 0.09928176
0001f0 98 90 e9 3d 0c 66 db 3d a7 8e f3 3d 41 38 0d 3e
       0.11404532 0.10712823 0.11892443 0.1379099

fc2.weight f4 [64, 128]
000000 4b 73 10 bd 1b bd 22 3d 9f 74 74 bd 2b 26 86 3d
       -0.035266202 0.039731126 -0.05968153 0.06550249
000010 a0 25 99 bd 12 61 d6 bc a4 bc 66 3d 78 d1 8e bd
       -0.074778795 -0.026169334 0.056332245 -0.06973547
000020 12 81 5a 3d ae a9 b1 bd 58 a8 b5 bd 23 9a 1b 3d
       0.053345747 -0.08674942 -0.0887 0.037988793
000030 af dc 23 bd 04 5e f4 3c 26 a6 b7 bd 3b 77 c3 3b
       -0.040005382 0.029829986 -0.08967237 0.005965141
000040 c9 95 47 3d 20 f6 39 bd 1a 2a 45 bd c7 43 a3 3c
       0.04872683 -0.04540074 -0.048135854 0.01992978
000050 68 bf cb 3c 40 fa 8f bd 54 5c 19 ba ed bf 0b 3d
       0.024871543 -0.07030153 -0.0005850245 0.03411858
000060 6c 83 d0 b9 9b 4a 5b 3c a4 5b 00 3d 90 fb a9 bd
       -0.00039770768 0.013384487 0.031337395 -0.08299935
000070 40 85 87 3c cd b8 89 bb 57 1c af bd 2b a8 4a bd
       0.01654303 -0.004202938 -0.08550327 -0.049476784
000080 ce 2f 36 bd d7 3c b5 bd 1f 09 42 3c 4c 66 90 3c
       -0.044479184 -0.08849495 0.011842995 0.017626904
000090 96 eb a6 bc 68 12 28 bd 1a b0 03 3d 1a 0f 67 3c
       -0.020376008 -0.04103318 0.032150365 0.014102722
0000a0 c0 a9 92 3c 59 42 2c 3d 01 14 22 3c 14 62 07 3c
       0.017903209 0.04205546 0.009892465 0.00826313
0000b0 8f 3a 5e 3c b6 1c 69 bd b8 5f 53 bd 37 5b 91 bd
       0.013563766 -0.056912147 -0.051604956 -0.07097476
0000c0 e2 69 93 bd 9f b0 8b bb 61 50 ab ba aa 5c 35 bc
       -0.0719793 -0.0042629982 -0.001307022 -0.011069456
0000d0 3d 6d cf bd d6 41 a1 3c 71 e9 cb bd 0d 88 ac bc
       -0.101282574 0.019684713 -0.09956635 -0.021060968
0000e0 2f 2e 02 3d 4b 4f 0b 3d 22 aa 93 3c c2 51 97 3c
       0.031782325 0.034011167 0.018025462 0.018471602
0000f0 08 00 c4 3c f8 26 02 3d 1d f8 c0 3a a5 2a 1a bd
       0.023925796 0.031775445 0.0014722381 -0.037638325
000100 ff a1 19 bd b2 26 c6 3b 20 6c cf 3c de f2 e8 b9
       -0.037508007 0.0060470933 0.025320113 -0.00044431438
000110 c0 57 d3 bd 4c 5d 2a 3b 98 c2 05 bd 6e c6 bc bd
       -0.10319471 0.002599555 -0.032656282 -0.09217535
000120 9c 8f 57 3c ce 29 28 3d fb 3a 87 bd fc 9e bd bd
       0.013156798 0.041055493 -0.066030465 -0.092588395
000130 e9 27 8e bd 83 83 ca bd 04 5e 1e 3d 2b ca 10 3d
       -0.06941206 -0.09888365 0.03866388 0.035349052
000140 66 cb f7 bc e3 52 31 3d 0d cd 7b bd c0 e1 7e 3d
       -0.030248355 0.043291938 -0.06147485 0.06222701
000150 48 0a 2b 3d 2b a4 0d 3c f8 e4 24 bd b3 fc 4a 3d
       0.04175785 0.008645098 -0.040257424 0.0495574
000160 47 49 33 3c e1 b5 f5 3c 96 a0 ae 3c 3a 0b dc 3c
       0.010942764 0.029993953 0.021316808 0.026860822
000170 62 87 84 bb 02 4e 1e bd 77 33 7a bd ab 0e 20 3d
       -0.004044459 -0.038648613 -0.061084237 0.03907649
000180 f1 96 19 bd ef 53 a3 bd 30 ba fe 3c 18 0b 92 bd
       -0.037497465 -0.079749934 0.03109464 -0.07131022
000190 4d 10 16 bd 92 d8 1e 3d 9e 69 1c bd af 22 fc 3c
       -0.03663664 0.038780756 -0.038186662 0.030778257
0001a0 34 c2 3d bd 2b 8f 5c bc 1a 65 82 bd ae 1e 91 bd
       -0.046327785 -0.013461868 -0.0636694 -0.0708593
0001b0 0f 22 02 bd 12 59 b7 bd 18 05 79 bd 18 96 4a bd
       -0.031770762 -0.08952536 -0.060795873 -0.049459547
0001c0 d4 a2 49 bd db 5a 03 3c de cf f4 bc 54 d0 be bc
       -0.04922755 0.008017267 -0.029884275 -0.023292698
0001d0 d2 73 69 bd c4 c4 43 3d 3e 71 59 3d 53 af 03 3d
       -0.05699522 0.047795072 0.05308651 0.032149624
0001e0 1c b1 4a bd 62 d5 1c 3c 29 a9 c0 3c 3f cb b0 bd
       -0.04948531 0.009572359 0.023518162 -0.08632516
0001f0 cb c7 8b bd 29 bd 95 bc cc d9 0e 3c b8 cf f8 3c
       -0.06825217 -0.018278675 0.008718919 0.030372486
000200 89 e4 81 bc ee 7b 98 3c 2f 02 48 bd d0 bc 27 3d
       -0.015856044 0.018613782 -0.048830207 0.04095155
000210 5d 09 3a bd 76 40 37 bd 98 7a 6e 3d d7 db 7b bd
       -0.045419086 -0.04473921 0.058222383 -0.061488952
000220 e6 7d 7a 3c bb 96 99 bd eb 86 82 bd 7d 2f f7 3c
       0.015288806 -0.07499453 -0.0637339 0.030174011
000230 a7 3d 0f bd c2 86 b0 bc 2c a3 29 bd 3b 1a 04 3c
       -0.034970906 -0.021548633 -0.04141538 0.008062894
000240 c3 92 3a 3d c0 ed 4a bd 82 39 c0 bd 8c 7d 73 bc
       0.04555012 -0.049543142 -0.09385969 -0.014861476
000250 9c 81 3c 3c 73 22 06 bd 24 e6 8e bc 5e 2a 80 3c
       0.011505511 -0.032747697 -0.017443724 0.015645202
000260 b7 ea 04 3c 82 4a 1d 3d ce bc da bb de a6 b1 bd
       0.008112601 0.038401134 -0.0066753393 -0.086744055
000270 c8 2f 8e 3c f1 bb 51 3c 24 66 83 bd f0 02 0b bd
       0.017356768 0.012801156 -0.06415966 -0.03393835
000280 92 4e 6c bd e5 40 5f bd af e8 18 3d af 47 28 3d
       -0.057692118 -0.054505248 0.03733128 0.041083988
000290 ac d5 1e 3c 96 aa 0e bd 0f b9 1a 3d 32 e9 af 3c
       0.009694498 -0.034830652 0.037774142 0.0214735
0002a0 34 4a 92 3b a0 e9 dc 3c 3f 28 5c 3c 89 86 5a 3b
       0.004464412 0.02696687 0.01343733 0.003334435
0002b0 27 3d 92 3c 22 4d 67 bd 79 26 58 bd 43 f3 be bc
       0.017851425 -0.056470044 -0.052771065 -0.023309356
0002c0 73 b9 20 bd 0e 16 1c 3a 91 1e 4a 3c 5c 0c 39 3c
       -0.03923936 0.0005954214 0.012336389 0.011294451
0002d0 3b 1a 8a bd 88 ca 53 3c dc 18 92 bd 0d 49 ad bc
       -0.06743284 0.012926705 -0.07133648 -0.021152997
0002e0 1d 42 ab 3c 44 91 09 3d 95 46 6e 3c 5b f4 95 3d
       0.020905549 0.0335858 0.014543195 0.07321998
0002f0 e4 c8 82 3d 2c b3 ce bb 79 88 3b bd b6 7c 48 3c
       0.06385973 -0.00630798 -0.045784447 0.012236765
000300 c8 ef 41 bc 40 d9 5b ba d2 19 24 3d 9d 87 c1 3c
       -0.011836953 -0.000838656 0.040063687 0.023624236
000310 1d 5e e0 bd da ba 05 3c dc 2b 46 bd 28 a8 f1 bd
       -0.10955451 0.008162225 -0.04838167 -0.117996514
000320 a4 46 44 3d e0 a6 7e 3c e7 20 8c bd 4d 06 a1 bd
       0.04791893 0.015542716 -0.06842213 -0.0786253
000330 da 4e 61 bd d4 ca ef bd de 1c d7 3c e8 fa 5b bd
       -0.05500684 -0.11708608 0.026258882 -0.05370608
000340 ae b0 51 bd 5c d8 8a bc 50 e1 5e bd ca a2 40 3c
       -0.051193886 -0.016948871 -0.054414093 0.011757562
000350 a6 4f f3 3c 8d c9 e8 3c 5c d0 6b bd 98 82 a3 3c
       0.029701065 0.02841642 -0.057571754 0.019959733
000360 f4 dd f2 3c 34 22 88 3c a0 d6 b9 bc 5b 46 77 3c
       0.029646851 0.016617872 -0.022685349 0.015092458
000370 38 75 19 3d 30 82 7a bd 64 7f 8d bd 35 fb 06 3d
       0.037465304 -0.061159313 -0.069090635 0.032954413
000380 50 c0 fc 3c b8 a8 8a bd 87 66 8a 3c b0 78 97 bd
       0.03085342 -0.06770462 0.016894592 -0.07396066
000390 fd cd b3 bd 2c e8 4d 3d 6f 0a f3 bc 6d 21 8a 3d
       -0.087795235 0.050270244 -0.029668061 0.06744657
0003a0 c0 6a cf bd ba cb 8a 3d 40 67 75 bd df 1b 55 bd
       -0.10127783 0.06777139 -0.05991292 -0.052028533
0003b0 a8 0c 5d bd 17 38 81 bd 11 0f 52 bd 96 6d 84 bd
       -0.053967148 -0.063095264 -0.0512839 -0.06466214
0003c0 99 2a 1f bd 6b 2f 1b bd af c9 5c bd 67 98 c3 bd
       -0.038858984 -0.03788702 -0.053903278 -0.09550553
0003d0 6f 36 ee bd c0 80 24 3d 96 f2 20 3d e8 b5 16 3d
       -0.11631476 0.040161848 0.039293848 0.036794573
0003e0 f1 72 40 bd d5 57 3a 3c 46 7e 9e bc 77 94 d9 bc
       -0.046984617 0.01137348 -0.019347321 -0.026560051
0003f0 88 06 40 bd cc 8a 4f bd f9 db 2e bd 8e f9 4f 3d
       -0.04688123 -0.050669476 -0.04269025 0.050775103

fc2.bias f4 [64]
000000 67 ff e6 b6 cc 3e 46 37 45 9a de b6 56 42 7d 37
       -6.884267e-06 1.1816341e-05 -6.634075e-06 1.509542e-05
000010 ee 3b 75 37 e8 ea 92 37 aa 3c 80 b6 7a 7c 40 36
       1.4617091e-05 1.7513943e-05 -3.8217595e-06 2.8682684e-06
000020 f9 af 10 b7 96 49 e0 36 20 06 86 37 23 17 9b b7
       -8.624041e-06 6.6842867e-06 1.5976897e-05 -1.8488214e-05
000030 2c 8a ae b5 3f ce 1a b7 c6 d8 30 36 f8 2a f9 b4
       -1.3004224e-06 -9.227136e-06 2.6352222e-06 -4.6411128e-07
000040 fc 00 c0 b6 e2 8e 0d b6 3e fe 50 b7 7e 57 33 36
       -5.7221605e-06 -2.1093806e-06 -1.24569615e-05 2.6724006e-06
000050 4a 01 b2 36 aa 9f 70 37 09 95 49 b7 a5 9e 51 37
       5.3049635e-06 1.4342289e-05 -1.2015234e-05 1.2494308e-05
000060 e8 65 af b6 16 91 fd 36 d7 14 8c b6 ec 7d 41 36
       -5.22727e-06 7.556878e-06 -4.174751e-06 2.8832537e-06
000070 0a 74 89 b6 a6 d6 8c b7 e8 3e a5 37 44 81 5f 36
       -4.096427e-06 -1.6789254e-05 1.9698826e-05 3.3304832e-06
000080 2e 49 91 36 a8 c5 1a b7 a6 84 07 37 c0 7a 51 36
       4.329856e-06 -9.225136e-06 8.077512e-06 3.1214877e-06
000090 33 d6 8a 37 7a 87 8e b7 13 04 82 b6 89 13 58 36
       1.6550626e-05 -1.6990805e-05 -3.874776e-06 3.219788e-06
0000a0 93 ec 7d 36 12 4b 98 b6 e0 54 36 b7 0e 09 c0 35
       3.7837642e-06 -4.5386923e-06 -1.0867807e-05 1.430775e-06
0000b0 05 85 0e 37 b2 07 04 37 e0 f2 df 36 e1 1e 87 b6
       8.494831e-06 7.869605e-06 6.6741923e-06 -4.0269083e-06
0000c0 a0 ff 4c b6 ba 24 85 37 de 25 7e b6 f2 bb 96 37
       -3.0547162e-06 1.5871938e-05 -3.787099e-06 1.7968912e-05
0000d0 d4 71 c8 b5 28 64 b0 b7 1e 2b b7 36 ca b8 42 36
       -1.493429e-06 -2.1027474e-05 5.4588445e-06 2.9015814e-06
0000e0 0e d9 4f b6 cd 3c 48 35 c0 06 6e b6 d2 c3 62 b6
       -3.0971746e-06 7.459428e-07 -3.5468693e-06 -3.3790607e-06
0000f0 9a 14 23 b7 e4 7c cd b5 40 bb 8b b4 00 0f 43 35
       -9.720354e-06 -1.5310038e-06 -2.602701e-07 7.266499e-07

bn2.weight f4 [64]
000000 3a 4d 31 3f 54 92 2d 3f 3c 95 16 3f 8b 1c 33 3f
       0.69258463 0.67801404 0.58821464 0.6996543
000010 08 e4 34 3f b1 69 37 3f 87 3e 2c 3f b4 55 2b 3f
       0.7066045 0.7164565 0.6728291 0.6692765
000020 70 8f 27 3f a2 0b 30 3f 50 64 26 3f 9e c9 0f 3f
       0.65453243 0.6876775 0.64996815 0.5616702
000030 06 4e 26 3f 5a 0d 27 3f 66 e0 ea 3e ca d2 28 3f
       0.64962804 0.6525475 0.45874327 0.6594664
000040 64 c8 09 3f 72 4d 14 3f 4d a3 2e 3f 5e 3e 23 3f
       0.53821397 0.5793067 0.6821793 0.6376704
000050 55 89 2e 3f 11 bb 37 3f 2d fc 25 3f 6e bb 2f 3f
       0.681783 0.71769816 0.64837915 0.6864537
000060 e4 06 b6 3e 9c 36 32 3f 4d da 26 3f 4d d7 2e 3f
       0.35552132 0.6961458 0.6517685 0.6829727
000070 76 03 32 3f 99 2f 32 3f 5d df 34 3f 66 5b 1c 3f
       0.6953653 0.6960388 0.70653325 0.6107696
000080 2b 23 1b 3f 2e 0c 33 3f ef fe 1f 3f 1a ee 28 3f
       0.6060054 0.6994046 0.6249837 0.65988314
000090 b0 ef 34 3f de 84 35 3f 7a 6f 2a 3f fa e6 e3 3e
       0.70678234 0.70905864 0.6657635 0.4451216
0000a0 ac 35 31 3f a9 5e 2c 3f d7 90 30 3f 7c c8 33 3f
       0.6922252 0.6733194 0.6897101 0.7022779
0000b0 53 36 1e 3f d0 a0 33 3f bf 91 21 3f e3 5a 2f 3f
       0.6180164 0.70167255 0.63113016 0.6849806
0000c0 00 5c 2d 3f ec 66 0f 3f 9c 9d 21 3f 8b b6 26 3f
       0.67718506 0.5601642 0.6313112 0.6512229
0000d0 43 ea 26 3f 35 6c 34 3f b3 5b 25 3f f4 95 35 3f
       0.65201205 0.7047761 0.64593047 0.70931935
0000e0 9f 3d 32 3f 55 ef 35 3f 58 b2 a5 3e 88 eb 09 3f
       0.69625276 0.71068317 0.32362628 0.5387502
0000f0 59 a2 2f 3f 84 7b 34 3f 10 3f ac 3e 63 35 3a 3f
       0.686071 0.7050097 0.33641863 0.7273771

bn2.bias f4 [64]
000000 69 f7 d0 be ad d4 b4 be bf 77 8a be 43 63 cf be
       -0.4081376 -0.3531851 -0.27044484 -0.40505418
000010 58 b3 bd be 66 12 cb be 7b f9 9c be d3 f9 9f be
       -0.3705089 -0.39662474 -0.30659088 -0.31245288
000020 06 20 9f be 91 f0 dc be 40 c0 d1 be 43 45 a8 be
       -0.3107912 -0.43152288 -0.40966988 -0.32865342
000030 93 97 da be 7f 8d ab be bc 7f 01 be 6a 23 b0 be
       -0.42693767 -0.3350639 -0.12646383 -0.3440202
000040 e4 ae 54 be 64 42 95 be 29 c8 9f be 3c 54 cf be
       -0.2076984 -0.29152215 -0.31207398 -0.40493953
000050 1a ac cc be 88 03 cf be e2 21 a7 be 46 76 ea be
       -0.39975053 -0.40432382 -0.32643038 -0.4579336
000060 93 a6 b7 be d2 d7 d9 be 6c 86 86 be 8d 99 af be
       -0.35869274 -0.4254747 -0.2627443 -0.34296837
000070 ae 1d db be c4 9c de be 0f 99 d1 be e8 47 94 be
       -0.4279608 -0.43478978 -0.40937087 -0.2896111
000080 0b 5e 7b be d9 fb bd be f5 31 a1 be 6f 79 ea be
       -0.24547593 -0.37106207 -0.31483427 -0.4579577
000090 22 3e c6 be 99 d9 d4 be c3 07 d3 be e4 a0 dc bd
       -0.3871928 -0.41572264 -0.4121686 -0.10772875
0000a0 5d 74 ed be 0a 7c c0 be d6 df d6 be 94 f8 d1 be
       -0.4637784 -0.37594634 -0.41967648 -0.41009963
0000b0 81 67 88 be 39 48 eb be 05 b3 de be 9d d0 b1 be
       -0.26641467 -0.4595354 -0.43495956 -0.34729472
0000c0 cb 29 ac be c3 1a 38 be 8c dd a8 be e2 c3 d6 be
       -0.33625636 -0.17978959 -0.32981527 -0.41946322
0000d0 13 62 97 be 88 78 ba be c1 39 c1 be 74 bf e9 be
       -0.29567012 -0.36420083 -0.37739375 -0.4565388
0000e0 6b d0 b7 be 33 ab ce be ac b9 0b be 47 c6 4c be
       -0.35901198 -0.4036499 -0.13645047 -0.19997512
0000f0 b4 9a db be 25 05 db be 43 9b a6 be 6e 84 c2 be
       -0.42891467 -0.42777362 -0.3254033 -0.3799166

bn2.running_mean f4 [64]
000000 b1 31 99 be 11 51 a2 be 5b 98 51 be 83 0e b7 be
       -0.29920724 -0.31702474 -0.20468275 -0.3575326
000010 0a 3a 9e be 7f 4c c9 be 55 18 85 be d8 81 8a be
       -0.30903655 -0.39316174 -0.25995126 -0.27052188
000020 2b 3c 96 be 13 d8 dd be 6e bb bb be de 3f 9a be
       -0.2934278 -0.43328914 -0.36666435 -0.30126852
000030 e4 1d c4 be a5 08 aa be a1 da 07 be 3a 2e ae be
       -0.38304055 -0.3320972 -0.13266994 -0.34019643
000040 ee fe 46 be 64 29 6b be ad 70 87 be 50 c5 c0 be
       -0.19433185 -0.22965008 -0.26453152 -0.37650537
000050 cd 55 ae be e9 4e b8 be ad 87 a8 be ba 14 e0 be
       -0.34049836 -0.35997704 -0.32916012 -0.43765813
000060 9f fc 84 be 50 55 cc be 14 bd 7d be 2d 94 89 be
       -0.25973985 -0.39908838 -0.24779159 -0.26870862
000070 55 76 c9 be df 9e be be 6f 88 bc be e5 62 60 be
       -0.39348093 -0.37230584 -0.3682284 -0.21912725
000080 20 34 82 be 08 cd 95 be 1e bf 88 be 03 2b de be
       -0.25430393 -0.2925799 -0.2670831 -0.4339219
000090 0b 7d b3 be 24 cc ba be 71 88 d6 be 0d b5 0c be
       -0.35056338 -0.36483872 -0.41900972 -0.1374094
0000a0 5a 58 d1 be 50 5c 96 be 2b 38 d6 be 3c 2c c8 be
       -0.4088772 -0.29367304 -0.41839728 -0.39096248
0000b0 ef 4e 59 be 97 9a dd be 30 a1 dd be 08 0a a2 be
       -0.21221517 -0.43282005 -0.4328704 -0.31648278
0000c0 8f c8 9e be 8d 87 36 be 4c d4 84 be 4a 5c ba be
       -0.3101239 -0.17825146 -0.2594322 -0.36398536
0000d0 25 34 93 be 0a 26 a8 be 6a 96 be be 87 2f dc be
       -0.2875072 -0.32841522 -0.37224132 -0.4300501
0000e0 5b 33 99 be 07 c9 c2 be 7f 15 ff bd 22 71 55 be
       -0.29921994 -0.38043997 -0.12455272 -0.20843938
0000f0 a4 fb d5 be b1 3c ba be 9f 02 74 be 5d b8 b7 be
       -0.4179355 -0.3637443 -0.23829125 -0.35882846

bn2.running_var f4 [64]
000000 1b 89 1a 3e 94 44 15 3e 1a da d3 3d 99 14 17 3e
       0.15091364 0.14576942 0.10344334 0.14753951
000010 0b e9 1c 3e 4c 51 7f 3e aa 39 04 3e 6d 41 e5 3d
       0.15323274 0.24933356 0.12912622 0.111941196
000020 31 b9 30 3e db 7d 8e 3e c8 20 7c 3e df 93 0c 3e
       0.17258145 0.27830395 0.2462188 0.13728283
000030 03 fa 65 3e f6 bd 4b 3e ac 94 83 3d 47 cf 48 3e
       0.22458653 0.19896683 0.06424841 0.1961032
000040 c9 be c4 3d fc f1 e5 3d f8 3e dd 3d 9f 31 54 3e
       0.09606702 0.112277955 0.10803026 0.20722054
000050 34 9e 5b 3e 7c fe 31 3e 89 81 2c 3e ba 32 95 3e
       0.21447068 0.17382234 0.16846289 0.29140264
000060 de d9 29 3d a8 07 7e 3e cf 66 e5 3d 1c 8b 03 3e
       0.04146754 0.24807608 0.1120125 0.12846035
000070 e6 a1 8d 3e a7 03 35 3e ac 2c 3c 3e 89 b8 e6 3d
       0.2766258 0.17677175 0.18376416 0.11265666
000080 d3 6d c3 3d fd 13 1c 3e 97 25 21 3e 40 bb 88 3e
       0.09542432 0.15242 0.15736996 0.2670536
000090 f7 6d 24 3e 56 34 24 3e 74 8b 83 3e df e8 57 3d
       0.16057573 0.1603559 0.25692332 0.052712318
0000a0 47 dd 84 3e 32 b4 2a 3e a8 aa 89 3e ed 3c 7d 3e
       0.2595007 0.16670302 0.26888013 0.24730273
0000b0 38 78 db 3d 73 d0 94 3e 88 bb 3d 3e 5e f8 08 3e
       0.10716289 0.29065284 0.18528569 0.13375995
0000c0 0f 8a 3b 3e dd cb aa 3d 36 f9 17 3e 0f 20 2e 3e
       0.18314384 0.08339665 0.1484116 0.17004417
0000d0 08 11 e2 3d 61 9c 1a 3e e2 8e 6b 3e 8b 58 40 3e
       0.11038405 0.15098716 0.23003724 0.18783776
0000e0 da 1d 09 3e 9e c0 3b 3e 57 bb 20 3d e9 64 c5 3d
       0.13390294 0.18335196 0.03924116 0.09638388
0000f0 e3 58 8a 3e ba ce 28 3e e5 5f 23 3d 5c 70 3f 3e
       0.2702094 0.1648511 0.039886374 0.18695205

fc3.weight f4 [1, 64]
000000 e4 90 aa bd 12 03 ab bd f9 52 73 3d 2a 4b b3 bd
       -0.08328417 -0.08350195 0.0594053 -0.08754571
000010 b3 4d 9d bd 3b e2 a6 3d fc 44 8f bd fe a8 8a bd
       -0.076808356 0.08148619 -0.069955796 -0.06770514
000020 5f e9 83 3d 1d 76 ca 3d f4 14 c8 3d a3 73 b4 3d
       0.064409964 0.098858096 0.097696215 0.088111185
000030 1e d8 d3 3d f9 50 93 3d 68 9c 40 3d 55 6f 9b 3d
       0.103439555 0.07193179 0.04702416 0.07589594
000040 f0 8a 5d 3d 46 7e 5a 3d 65 f0 81 bd 72 ac cf 3d
       0.05408758 0.05334308 -0.0634468 0.10140313
000050 7d e3 a1 3d 11 1c 9f bd b4 57 8f 3d de a0 d6 3d
       0.07904718 -0.07769025 0.0699915 0.10479902
000060 69 be 19 3e ca 24 ad 3d e1 f6 63 bd bd 0d 92 bd
       0.15014042 0.084542826 -0.055655364 -0.071315266
000070 00 50 c4 3d 28 9c b1 bd 6b 30 b7 bd 85 cc 79 3d
       0.09585571 -0.086723626 -0.08944782 0.06098606
000080 11 78 75 bd 46 27 a4 bd 7a 33 8e 3d c6 52 10 3e
       -0.059928957 -0.08015303 0.06943412 0.14094076
000090 29 4c ab bd ea 00 bd bd d4 34 d0 3d 89 21 7c bd
       -0.08364136 -0.0922869 0.10166326 -0.06155542
0000a0 95 c1 c8 3d 14 c0 9e 3d 37 59 c4 3d 5f 97 b2 3d
       0.09802548 0.0775148 0.09587329 0.08720278
0000b0 5b dd 70 3d 3f 45 e3 3d aa eb 05 be 26 cb 7c bd
       0.05880485 0.11097192 -0.1307818 -0.061717175
0000c0 f8 cf 8d 3d 0c 67 53 3d 0d fe 8d 3d d8 ba df bd
       0.069244325 0.051611945 0.06933222 -0.109243095
0000d0 ce bb 89 bd b2 55 9a bd f1 62 c4 3d 70 76 de bd
       -0.06725274 -0.07535876 0.09589184 -0.10862434
0000e0 13 23 8b bd 07 08 b1 bd da 1e 41 3d 90 87 67 3d
       -0.06793799 -0.08644109 0.047148563 0.056525767
0000f0 fb d9 d2 3d 41 b3 ba bd dd f3 09 3e e9 94 9d bd
       0.10295483 -0.09116221 0.13471933 -0.07694418
