trained_uttt_model.pth (torch, 160886 bytes, 5 tensors)

fc1.weight f4 [128, 243]
0	0xbd41aa8e	-0.047281794
1	0x3ac2c8fc	0.0014860923
2	0x3b6a77fe	0.0035777087
3	0x3c272537	0.010201744
4	0x3cfcb4e6	0.030847978
5	0xbbd02d28	-0.0063530393
6	0xbd85f713	-0.06541266
7	0x3d92f66d	0.07175908
8	0x3d6405ca	0.055669583
9	0x3e1325b8	0.14369857
10	0xbd928a4b	-0.071552835
11	0xbc369387	-0.011143572
12	0xbd7baf26	-0.06144633
13	0xbd7f68fe	-0.062355988
14	0x3cfb0a4b	0.030644557
15	0x3ba477e1	0.0050191735
16	0xbcf087af	-0.029361574
17	0x3b93b1ac	0.004507264
18	0x3d09d792	0.03365285
19	0x3cd707a2	0.026248757
20	0xbd156a47	-0.036478307
21	0x3d70a662	0.058752425
22	0x3d428443	0.047489416
23	0xbcb4443a	-0.02200519
24	0xbd077109	-0.033066783
25	0x3cbe9962	0.023266498
26	0x3ccb39e2	0.024807874
27	0xbc3bd090	-0.011463299
28	0x3ce0b010	0.027427703
29	0x3cf03d52	0.029326115
30	0xbc104d87	-0.008807546
31	0x3d8a1c6f	0.067437045
32	0xbcf86559	-0.030321764
33	0xbccb8f6f	-0.024848668
34	0x3c84de85	0.016219387
35	0x3ccd3297	0.025048537
36	0xbda05793	-0.078292035
37	0x3d805814	0.062667996
38	0x3cb9fb16	0.022702735
39	0xbd2c5a81	-0.0420785
40	0x3d6dffe7	0.058105376
41	0xbd879593	-0.06620326
42	0x3cc962d0	0.02458325
43	0xbce78358	-0.028260872
44	0x3c3ae6c4	0.011407558
45	0x3c9df855	0.019283453
46	0xbc109818	-0.0088253245
47	0xbd285dcd	-0.04110508
48	0xbd42e22c	-0.047578976
49	0xbbdd9b27	-0.0067628804
50	0x3dd519a9	0.10405285
51	0x3d6ca02f	0.05776995
52	0xbd19b95f	-0.0375303
53	0x3c365d2f	0.011130615
54	0xbc772c95	-0.015086313
55	0xbd42f49a	-0.04759655
56	0x3db8907c	0.09011933
57	0x3bc529f2	0.006016963
58	0x3da975fb	0.08274456
59	0xbb98436d	-0.0046467097
60	0x3b8e93cf	0.0043511163
61	0xbd7a7119	-0.061143015
62	0x3b3e4147	0.0029030608
63	0xbce71960	-0.028210342
64	0xbcbbc28e	-0.02291992
65	0x3cf4f0b9	0.029899942
66	0x3c4051ca	0.01173825
67	0xbc4f0f5a	-0.012637937
68	0x3d08dba6	0.033412598
69	0x3d8a98e2	0.06767441
70	0xbab278ce	-0.0013616325
71	0xbcd74eb4	-0.026282646
72	0x3d11b2be	0.035570852
73	0xbb92e6e8	-0.0044830926
74	0xbda18e6e	-0.078884944
75	0xbd20230c	-0.039095923
76	0xbda63f89	-0.08117587
77	0xbcd362e2	-0.025803987
78	0x3d8d5af1	0.06902111
79	0xbda2e07d	-0.07952974
80	0x3d6f3250	0.05839759
81	0x3acbe03b	0.0015554497
82	0x3bcd9e76	0.0062749935
83	0xbd2ef0a4	-0.04270996
84	0x3d1dd2f9	0.038531277
85	0xbc304420	-0.01075843
86	0xbd08c201	-0.03338814
87	0x3d933e3c	0.07189605
88	0xbd67b97d	-0.05657338
89	0xbd2b70a3	-0.041855466
90	0xbd0ba957	-0.034097042
91	0xbd292dae	-0.04130333
92	0x3c57bc4e	0.013167454
93	0x3c74f24f	0.014950349
94	0xbd14a852	-0.036293335
95	0xbb45054b	-0.003006297
96	0xbc9f3416	-0.019434016
97	0xbcccf7da	-0.025020529
98	0x3da65245	0.081211604
99	0xbcf37aab	-0.029721579
100	0xbba8436b	-0.00513499
101	0x3dbe2f14	0.09286323
102	0xbc9c19db	-0.019055298
103	0x3c21a772	0.009866582
104	0x3d25ef0d	0.04051118
105	0xbd7ca0ff	-0.061676975
106	0xbc80d034	-0.015724279
107	0x3c21c0f2	0.009872662
108	0xbcd9cf19	-0.02658801
109	0xbd9d61e2	-0.07684685
110	0x3da5c466	0.08094101
111	0xbd891fc4	-0.06695512
112	0x3c2044b2	0.009782003
113	0x3bc3ba54	0.00597314
114	0xbcc43740	-0.023952127
115	0xbaa1c778	-0.0012342772
116	0x3d12873a	0.035773493
117	0x3c4d5450	0.012532309
118	0x3ae95429	0.0017801571
119	0xbd3de0fd	-0.046357144
120	0x3d199707	0.037497547
121	0x3d5bb5d3	0.053640198
122	0x3cc55b41	0.024091365
123	0x3d08c3b5	0.033389766
124	0x3ce5c771	0.028049203
125	0xbc47f614	-0.012204666
126	0x3d3f579f	0.04671442
127	0xbd91bd20	-0.07116151
128	0x3cdebb3b	0.027188888
129	0x3ad8bcbd	0.001653574
130	0xbddffdb6	-0.109370634
131	0x3ded431d	0.115850665
132	0x3d58a873	0.05289502
133	0xbdc5e5bc	-0.09662959
134	0x3d2a4dc8	0.041578084
135	0x3d02295d	0.03177773
136	0xbdbb6206	-0.09149556
137	0xbc07792d	-0.008268637
138	0xbc290ad8	-0.010317527
139	0xbd92207e	-0.07135104
140	0x3d7d5dbd	0.061856974
141	0xbd037d9f	-0.032102223
142	0x3a624748	0.00086318376
143	0xbd267400	-0.04063797
144	0xbbfb4b07	-0.007668856
145	0xbd4d3a36	-0.050104342
146	0xbd376493	-0.04477365
147	0xbcecf6b4	-0.028926231
148	0xbd07a1b8	-0.03311321
149	0x3cb80ea9	0.022467928
150	0xbcf73744	-0.03017772
151	0x3d02e03f	0.03195214
152	0x3c74baa6	0.014937079
153	0x3cc382ae	0.023866024
154	0x3c5186ec	0.012788516
155	0x3d3097bb	0.04311345
156	0x3d804249	0.06262643
157	0x3d14d9cb	0.036340516
158	0xbd7505ce	-0.05981999
159	0xbd1128a2	-0.03543914
160	0x3d535cf4	0.05160232
161	0x3d980d86	0.074244544
162	0x3c7d5e5b	0.015464391
163	0x3d048b2b	0.032359283
164	0xbbe9be9f	-0.0071333195
165	0xbd89810e	-0.06714068
166	0x3c463d82	0.012099626
167	0x3cbe0cd8	0.023199484
168	0xbbd539b8	-0.0065071248
169	0xbd333405	-0.04375078
170	0xbd6c8a7f	-0.057749268
171	0x3ca22ce5	0.019796798
172	0xbd7d45fa	-0.061834313
173	0x3ce32383	0.027726894
174	0x3d28faa6	0.041254662
175	0xbd6ce1f2	-0.057832666
176	0x3d77de56	0.06051477
177	0x3c84c14c	0.016205452
178	0xbd4b0d9e	-0.049573533
179	0xbcd26dda	-0.025687147
180	0x3d54ad7d	0.051923264
181	0xbdd1fc6c	-0.10253224
182	0x3db2f589	0.08738238
183	0x3d6ae9fb	0.057352047
184	0x3d5bb8da	0.053643085
185	0xbca36666	-0.019946288
186	0x3d94cbe8	0.072654545
187	0xbb82e7df	-0.0039949263
188	0xbdd97e85	-0.10619835
189	0xbd847ba6	-0.064688966
190	0xbca64227	-0.020295216
191	0xbd410da4	-0.04713215
192	0xbda3a46f	-0.079903476
193	0xbb554c9a	-0.0032546879
194	0x3d7de1bc	0.061982855
195	0x3c606eca	0.013698289
196	0x3cc25f85	0.023727188
197	0x3d5fc571	0.054631654
198	0xbc30e0f2	-0.010795819
199	0xbd3550d3	-0.044266533
200	0xbd3e5eea	-0.046477236
201	0x3d10aaaa	0.035319008
202	0x3d2527b9	0.040321086
203	0x3cb5f0d8	0.02220957
204	0x3d95cc5e	0.073143706
205	0xbdd42f64	-0.103606015
206	0xbd192cd0	-0.037396252
207	0x3d84d0aa	0.06485112
208	0xbced97b2	-0.029002998
209	0xbd128b27	-0.035777237
210	0x3cad6dfe	0.021170612
211	0x3ccf29eb	0.025288543
212	0xbdb9c2a3	-0.09070327
213	0x3d06ed5f	0.03294122
214	0xbd342bbd	-0.043987025
215	0x3d471344	0.048602358
216	0x3d148c10	0.036266387
217	0xbc62c1ee	-0.013840182
218	0xbc3b0971	-0.011415825
219	0xbc5327f9	-0.012887948
220	0xbd71beac	-0.05901973
221	0x3c3333f0	0.010937676
222	0x3c3c8b54	0.011507828
223	0x3cf7cdee	0.030249562
224	0x3d5c91e5	0.053850073
225	0xbd14f197	-0.03636321
226	0xbd21dc48	-0.039516717
227	0xbccf1dbf	-0.025282739
228	0x3d4ca241	0.049959425
229	0xbdc01d48	-0.09380585
230	0xbc40d131	-0.011768625
231	0x3d5c06d2	0.05371744
232	0xbd977775	-0.073958315
233	0x3d8a1aeb	0.067434154
234	0xbd4c34bd	-0.049854983
235	0xb98f05fb	-0.0002727954
236	0xbc0773e3	-0.008267376
237	0xbd6510f0	-0.055924356
238	0x3da22952	0.079180375
239	0xbc952e07	-0.018210424
240	0xbdb737b3	-0.08946171
241	0x3d89debd	0.06731937
242	0x3c496c6c	0.012293916
243	0x3c47dc4c	0.012198519
244	0xbacfef7f	-0.0015864222
245	0xbd9ae0f6	-0.07562439
246	0xbcbc901d	-0.023017937
247	0xbae8975e	-0.0017745306
248	0xbd7c94cb	-0.061665338
249	0xbcf31247	-0.029671801
250	0x3d35ca48	0.044382364
251	0xbcd37957	-0.025814695
252	0x3cbc75b6	0.023005348
253	0x3da02c0b	0.078209005
254	0xbd43e15c	-0.04782234
255	0x3c97cf62	0.018531505

fc1.bias f4 [128]
0	0xbd0125d2	-0.03153021
1	0x3cf4ce8f	0.029883651
2	0xbd306745	-0.043067235
3	0x3d0bd5da	0.03413949
4	0xbd6409c5	-0.05567338
5	0x3d485bff	0.04891586
6	0x3d7d9eb2	0.06191892
7	0x3b2a0590	0.0025943257
8	0x3c8005e4	0.015627809
9	0xbc571db7	-0.013129643
10	0xbcd7e43e	-0.026353952
11	0x3d2f2914	0.042763785
12	0xb9c1e299	-0.00036980657
13	0xbcd8e04b	-0.026474139
14	0xbd0c49ab	-0.034249943
15	0xbcd3edc7	-0.025870217
16	0xbd530177	-0.05151507
17	0xbcd25586	-0.025675546
18	0x3d7fc8f6	0.06244751
19	0xbd06271b	-0.032752138
20	0x3d650b18	0.055918783
21	0x3cade7ca	0.02122869
22	0x3cd374c1	0.025812509
23	0xbd0f86ad	-0.035040546
24	0x3cd25669	0.02567597
25	0x3d0ef485	0.03490116
26	0x3d0f2090	0.034943163
27	0x3b4b8aaf	0.0031058004
28	0x3d1a6adc	0.037699565
29	0xbca22012	-0.019790683
30	0xbcafb313	-0.021447694
31	0x3d7c7c1b	0.061641794
32	0xbc8a7f0c	-0.016906284
33	0x3d828e7b	0.06374832
34	0x3c304075	0.010757555
35	0x3c0adb28	0.0084751025
36	0xbc256cef	-0.010096773
37	0x3cdbc372	0.026826594
38	0xbd61c4eb	-0.055119436
39	0xbd30b0f6	-0.043137513
40	0xbc291ca3	-0.010321769
41	0xbd1fd673	-0.039022874
42	0x3d6c301e	0.057663076
43	0x3d691e6b	0.056913774
44	0xbd4d1032	-0.050064273
45	0xbbd6c185	-0.006553831
46	0xbc8f13e8	-0.017465547
47	0x3d2d65af	0.0423333
48	0xbd3de0c6	-0.04635694
49	0x3d46f0e5	0.04856958
50	0xbc241349	-0.010014364
51	0x3c48b07e	0.01224911
52	0xbd174f86	-0.036941074
53	0xbd6be85c	-0.057594642
54	0x3b840e72	0.0040300423
55	0xbd700c3f	-0.05860543
56	0x3c0e1255	0.008671363
57	0x3bc13a1f	0.005896821
58	0xbc33b0af	-0.010967418
59	0xbb0d931f	-0.0021602584
60	0xbcc3d605	-0.023905763
61	0x3c6cb451	0.014447288
62	0x3d67ffb7	0.056640353
63	0xbceedb02	-0.029157165
64	0x3cea109f	0.028572379
65	0xbbf2e449	-0.0074124676
66	0x3cb103f9	0.02160834
67	0xbc5ecd7c	-0.013598796
68	0xbd0baa0f	-0.034097727
69	0x3cbe6218	0.023240134
70	0xbd5d79cb	-0.05407123
71	0xbc32576f	-0.010885104
72	0x3d6199f3	0.055078458
73	0x3c3b5b76	0.01143538
74	0xbd5106cc	-0.051031873
75	0x3d4aad2e	0.049481563
76	0xbcdb1902	-0.026745323
77	0xbcb76fdb	-0.022392204
78	0x3b46e9a9	0.0030351675
79	0x3d1c51c1	0.038163904
80	0xbd754dfa	-0.059888817
81	0xbb854031	-0.00406649
82	0xbd13ba8a	-0.03606657
83	0x3d3772f2	0.044787355
84	0xbd37ea36	-0.044901095
85	0xbd173ac4	-0.036921278
86	0x3d0d5c2f	0.03451174
87	0x3d3587e0	0.044319034
88	0x3d5591df	0.052141067
89	0x3d5a70bc	0.053330168
90	0xbcf229ae	-0.02956089
91	0x3c1172ef	0.0088775
92	0x3ca4556f	0.02006027
93	0xbd79e181	-0.061006073
94	0xbd20c5c3	-0.0392511
95	0x3ab611c8	0.0013890797
96	0x3b03c66a	0.0020107278
97	0xbd4635b0	-0.048391044
98	0xbd2216a5	-0.039572377
99	0x3cce4071	0.025177212
100	0x3d16bbb3	0.036800098
101	0xbcbc9621	-0.023020806
102	0x3a37a443	0.0007005373
103	0x3d6f8dd4	0.058484867
104	0xbc4a908e	-0.012363566
105	0x3d0dc344	0.034610048
106	0xbd1a556a	-0.037679113
107	0xbc46bf06	-0.0121305045
108	0xbcc83a03	-0.024441725
109	0x3d769ca3	0.060207974
110	0x3b3cd875	0.0028815542
111	0x3d15a803	0.03653718
112	0xbccd6da0	-0.025076687
113	0xbc5d7567	-0.01351676
114	0xbd655cc4	-0.05599667
115	0x3d76b136	0.060227595
116	0x3cb15e47	0.0216514
117	0x3cd423b2	0.025895927
118	0x3d20ed90	0.039289057
119	0xbd6c5c88	-0.057705432
120	0x3c9603b0	0.018312305
121	0xbd3f5774	-0.04671426
122	0xbb919eb0	-0.004443966
123	0x3c1bd471	0.009511099
124	0x3c990978	0.018681273
125	0xbcc7eec6	-0.024405848
126	0xbcce2851	-0.025165709
127	0xbcf2155d	-0.029551202

fc2.weight f4 [64, 128]
0	0xbbdfdec9	-0.006831978
1	0xbc707438	-0.014676146
2	0x3cf3ebda	0.029775549
3	0x3dbb78f8	0.09153932
4	0xbc97ad80	-0.018515348
5	0xbc9b24fb	-0.018938532
6	0x3d01b8f3	0.031670522
7	0xbdda94e9	-0.106729336
8	0xb8c815e2	-9.540819e-05
9	0x3de676b3	0.11253109
10	0xbdf9bcca	-0.12194212
11	0xbbe9e671	-0.0071380665
12	0xbbcfc583	-0.006340684
13	0x3c079806	0.008275991
14	0x3c4c597d	0.012472508
15	0x3c0d998e	0.008642567
16	0xbe08aff8	-0.13348377
17	0xbdae831b	-0.085211
18	0xbc0c00b2	-0.008545088
19	0x3d902978	0.070391595
20	0x3d9b14bc	0.07572314
21	0x3d533091	0.05155999
22	0x3b1359d7	0.0022483969
23	0xb89e0250	-7.534458e-05
24	0x3d7b5616	0.061361395
25	0x3d4f7d67	0.050656702
26	0x3b6461af	0.0034848263
27	0xbd8d21f4	-0.06891242
28	0x3d2e86b5	0.042608935
29	0x3de55114	0.11197105
30	0xbd2d951f	-0.04237854
31	0xbdf72b5e	-0.120688185
32	0x3dd287e5	0.10279826
33	0x3d8ee4a4	0.069772035
34	0x3bb83730	0.0056218132
35	0x3d85de4f	0.065365426
36	0x3e175033	0.14776687
37	0x3e486948	0.19571412
38	0x3cc0949b	0.02350836
39	0xbd3fcc34	-0.046825603
40	0x3dbfbbec	0.09362015
41	0x3cb1977f	0.021678684
42	0x3ddd988d	0.108201124
43	0x3d1ad5c6	0.037801526
44	0xbde4eba0	-0.111777544
45	0xbdc1627e	-0.09442614
46	0x3ca93461	0.020654859
47	0xbdb027f3	-0.0860137
48	0x3d9f14ef	0.07767665
49	0x3e07cf0b	0.13262574
50	0x3e078915	0.13235886
51	0xbdb1e4de	-0.08686231
52	0xbdc82470	-0.09772575
53	0xbc6aad39	-0.014323526
54	0x3e030c95	0.12797768
55	0xbd883f22	-0.06652667
56	0x3de1835e	0.110113844
57	0xbc5955c6	-0.013265079
58	0x3a48905b	0.0007650905
59	0x3d8a3930	0.06749189
60	0xbda3f69b	-0.08006021
61	0xbdc80ec5	-0.09768442
62	0x3e1a463f	0.1506586
63	0x3d2bceb6	0.04194518
64	0xbde27701	-0.110578544
65	0xbbbd1acf	-0.005771018
66	0xbd659004	-0.056045547
67	0x3d30ee7a	0.04319618
68	0x3dfb9da5	0.12285928
69	0x3c843f85	0.01614357
70	0xbdd7d871	-0.1053933
71	0x3c4a4e85	0.012347822
72	0x3df25c75	0.11834041
73	0x3dedf51c	0.116190165
74	0xbda87914	-0.08226219
75	0xb9f2fcec	-0.00046346278
76	0x3dd95f10	0.10613835
77	0xbc6e3655	-0.014539321
78	0x3d82ffed	0.0639647
79	0xbd0b3fa7	-0.03399625
80	0xbc1f9497	-0.009740016
81	0x3ccff781	0.025386574
82	0x3d18fb18	0.037348837
83	0x3d833aa0	0.06407666
84	0x3d0c6c03	0.034282696
85	0x3de0b504	0.10972026
86	0x3d7a0758	0.06104216
87	0x3df7bdfb	0.12096783
88	0xbcaad2a9	-0.020852404
89	0xbc8c82a4	-0.017152138
90	0xbbdce973	-0.0067416965
91	0xbe08c62b	-0.13356845
92	0x3d05af9b	0.032638174
93	0xbdc02af5	-0.093831934
94	0x3dbc185b	0.09184333
95	0x3d01c1c7	0.03167894
96	0xbd051f46	-0.032500528
97	0xbe2c362a	-0.16817537
98	0xbddf3527	-0.1089881
99	0x3e356fa6	0.17718372
100	0xbd2a309f	-0.041550275
101	0xbbe62dd7	-0.0070245075
102	0xbc1e556d	-0.009663922
103	0xbd92fb24	-0.071768075
104	0x3e2589ba	0.1616582
105	0x3c89ec38	0.01683627
106	0x3daaac9d	0.083337046
107	0x3da5f26f	0.08102881
108	0x3d0099c8	0.031396657
109	0x3bca340c	0.0061707553
110	0x3dfed876	0.124436304
111	0x3dee2a84	0.11629203
112	0xbc1f1cee	-0.009711487
113	0xbd1c471c	-0.038153753
114	0xbc42b9d9	-0.01188513
115	0x3d690fff	0.05690002
116	0x3d53da80	0.05172205
117	0xbe0762e0	-0.13221312
118	0x3d7e3376	0.062060796
119	0xbe3a7bdd	-0.18211313
120	0xbdc0a312	-0.09406103
121	0xbb2f7c4d	-0.002677697
122	0x3d17baad	0.037043262
123	0x3dc9275e	0.09821962
124	0xbd9de041	-0.07708789
125	0x3e0f682c	0.14004582
126	0xbca12ed9	-0.019675659
127	0xbc364cf4	-0.0111267455
128	0xbd9976bf	-0.07493352
129	0x3d805c8b	0.06267651
130	0x3c2ff8da	0.010740483
131	0x3e00b7f2	0.1257017
132	0xbcda5328	-0.02665098
133	0x3cbf0791	0.023319038
134	0xbe0ef54f	-0.13960765
135	0x3d8f06cf	0.069837205
136	0xbe0022b7	-0.12513243
137	0x3ca372a2	0.019952122
138	0xbd4daca2	-0.050213464
139	0x3d163537	0.036671843
140	0xbd0d6636	-0.034521304
141	0x3dddc8bb	0.10829302
142	0x3e08a436	0.13343892
143	0xbcfa597a	-0.030560244
144	0x3d6bce8c	0.057570025
145	0x3c807ae5	0.0156836
146	0xbe553eb2	-0.20824698
147	0x3d679766	0.05654087
148	0x3e1ab88a	0.15109459
149	0x3d216784	0.03940536
150	0x3d739f93	0.059478354
151	0x3bd9c1e7	0.0066454294
152	0xbd6ca6f4	-0.057776406
153	0xbc9b1913	-0.018932855
154	0xbd936cea	-0.07198508
155	0xbd9d199f	-0.076709025
156	0xbe68e1b2	-0.22742346
157	0x3d509cc9	0.050930772
158	0xbc9e2266	-0.019303512
159	0x3cf72282	0.030167822
160	0xbe27b109	-0.16376127
161	0xbda4819f	-0.08032536
162	0x3d74505b	0.059646945
163	0xbc13f003	-0.009029391
164	0x3e1d2438	0.15345848
165	0xbbbacd02	-0.0057007084
166	0x3d7f52c5	0.062334795
167	0xbd8e9e24	-0.06963757
168	0xbd25d159	-0.040482853
169	0xba84b11e	-0.0010123586
170	0xbd6b024c	-0.057375237
171	0x3c806e82	0.015677694
172	0x3e135bf8	0.14390552
173	0x3961e230	0.00021541934
174	0xbd5b5e39	-0.053556655
175	0x3d45a2d4	0.048250988
176	0x3cf9469f	0.030429183
177	0xbcea2941	-0.028584125
178	0x3d294a9c	0.04133092
179	0x3d117cd6	0.035519443
180	0xbd123b18	-0.035700887
181	0x3db5659a	0.088572696
182	0xbcecefcf	-0.028922943
183	0xbd7fef34	-0.06248398
184	0xbd81b3e1	-0.06333137
185	0x3dd1592a	0.10222085
186	0x39567947	0.0002045381
187	0x3d4076f3	0.04698844
188	0x3d573d77	0.05254885
189	0xbd130975	-0.03589769
190	0xbcee35f6	-0.029078465
191	0x3d738991	0.059457365
192	0xbdace27a	-0.084416345
193	0x3b7a5952	0.0038200212
194	0xbdbc0c7c	-0.09182069
195	0xbe2f9437	-0.17146383
196	0xbd4966d9	-0.04917035
197	0x3d8c58ac	0.0685285
198	0x3c16a523	0.009194645
199	0xbc10f9c5	-0.008848612
200	0xbe3abb1e	-0.18235442
201	0xbd9ca2b5	-0.076482214
202	0x3d699ce5	0.057034392
203	0xbc8415cf	-0.01612368
204	0xbd884faf	-0.066558234
205	0xbdedfb92	-0.11620249
206	0xbdca5bde	-0.098808035
207	0x3cf476d2	0.029841814
208	0x3dee3c5c	0.116326064
209	0xbe0bad95	-0.13640435
210	0xbe19f5cb	-0.15035169
211	0xbce80227	-0.028321339
212	0x3e06605a	0.13122693
213	0xbe2820ce	-0.16418764
214	0xbd961f99	-0.073302455
215	0xbd23fd74	-0.040036634
216	0x3ded6451	0.115913995
217	0xbd857360	-0.06516147
218	0xbd830dcb	-0.06399115
219	0x3c8cf64d	0.01720729
220	0xbc344678	-0.011003129
221	0x3db10637	0.086437635
222	0x3d65cbd3	0.056102585
223	0x3d8623cd	0.06549797
224	0xbc87814b	-0.016541144
225	0x3d660628	0.056158215
226	0x3c6cb49d	0.014447358
227	0x3d53d7b6	0.05171939
228	0x3d8a75f1	0.06760777
229	0x3d89fb3f	0.067373745
230	0xbcf6e461	-0.030138196
231	0x3e171691	0.14754702
232	0xbd1bd7f6	-0.038047753
233	0xbc882bbd	-0.016622419
234	0x3d963d51	0.07335914
235	0xbdd9d667	-0.10636597
236	0xbd159d27	-0.036526825
237	0x3d42e8af	0.047585186
238	0xbc17ef9c	-0.009273436
239	0x3c727298	0.014797829
240	0xbc32d3b0	-0.010914728
241	0xb9d5a90f	-0.00040752484
242	0x3e3e6fb1	0.18597294
243	0xbe0d37c7	-0.13790809
244	0x3db478de	0.08812116
245	0x3e06d3f3	0.1316679
246	0xbe07a748	-0.13247406
247	0x3d52f798	0.051505655
248	0x3c66f616	0.014096757
249	0x3d55364e	0.052053742
250	0x398074e1	0.00024501144
251	0xbe0740e2	-0.13208345
252	0xbb8bea2b	-0.0042698584
253	0x3d1ca3bc	0.038242087
254	0xbc2bee8b	-0.010493885
255	0xbe5d9c4d	-0.21641655

fc2.bias f4 [64]
0	0x3ce11b77	0.027478917
1	0xbd50baf1	-0.05095953
2	0xbcd672a9	-0.026177721
3	0xbb2de23b	-0.002653255
4	0x3dc05e36	0.09392969
5	0x3b63de13	0.0034769818
6	0xbd8261a9	-0.063662834
7	0x3d1c8e73	0.038221788
8	0xbd224f6c	-0.039626524
9	0xbc6e6864	-0.014551256
10	0x3c9e9f5d	0.0193631
11	0xbca72095	-0.020401279
12	0xbcf6d7b1	-0.030132147
13	0x3d6e5a71	0.05819172
14	0x3da3af42	0.07992412
15	0x3badbd7f	0.0053021307
16	0xbd25b7e4	-0.040458575
17	0x3d340572	0.043950506
18	0x3c8f18ba	0.017467845
19	0xbcb949bc	-0.022618167
20	0x3c12b1dc	0.008953538
21	0xbb41eb3e	-0.0029589678
22	0xbc2c3727	-0.010511196
23	0x3db37b2f	0.0876373
24	0xbd078bd6	-0.033092342
25	0x3d80b35b	0.06284209
26	0xbc883c52	-0.016630325
27	0x3d9f329f	0.07773327
28	0xbd9e121c	-0.07718298
29	0x3d344d0d	0.044018794
30	0xbbcbc0ce	-0.0062180525
31	0x3c98027a	0.018555868
32	0xbb85b2e5	-0.004080164
33	0xbd31a0ff	-0.04336643
34	0x3d88cdcd	0.066798784
35	0x3d525bf0	0.05135721
36	0x3d1d476c	0.03839819
37	0x3d4c5e5f	0.049894687
38	0xbd873b51	-0.066031106
39	0xbb958290	-0.0045626834
40	0x3dc0e004	0.094177276
41	0x3da000ee	0.07812677
42	0x3cfa7b89	0.030576484
43	0x3dc3df3e	0.095640644
44	0x3d6f6c3c	0.05845283
45	0x3caa389c	0.020778947
46	0x3c09889d	0.008394388
47	0xbd72d87d	-0.05928849
48	0x3d31d851	0.043419186
49	0x3d8e6bf2	0.06954183
50	0x3d3a6940	0.04551053
51	0x3ace3a83	0.0015733991
52	0xbcb77c47	-0.022398127
53	0x3d6af302	0.057360657
54	0x3d621c4a	0.05520276
55	0xbd9ea30e	-0.07745944
56	0x3db13b6a	0.086539105
57	0xbd144ee3	-0.036208045
58	0xbd319ca1	-0.043362264
59	0x3d776c7a	0.060406186
60	0x3d6b69f4	0.05747409
61	0x3dc20b96	0.09474866
62	0x3daea633	0.08527794
63	0xbc78f3f0	-0.015194878

fc3.weight f4 [1, 64]
0	0xbe34e226	-0.17664394
1	0x3f0357c3	0.5130579
2	0x3eb7f769	0.35930946
3	0xbe685266	-0.22687683
4	0x3e090063	0.13379054
5	0x3e9a6125	0.3015224
6	0xbe8ea6d0	-0.27861643
7	0xbe8da390	-0.2766385
8	0x3e2f460c	0.17116565
9	0xbeb24dfe	-0.34825128
10	0xbe5ffe6c	-0.21874398
11	0x3ea37361	0.31923965
12	0x3ed34389	0.41262463
13	0xbe87da5d	-0.26533785
14	0x3e86a387	0.26296636
15	0xbeaef602	-0.34172064
16	0x3ec1dcaa	0.37863666
17	0xbe9ab50f	-0.30216262
18	0xbec863e1	-0.39138702
19	0x3ecc995d	0.39960757
20	0x3eec5c86	0.4616434
21	0xbe8ddba8	-0.27706647
22	0x3dd74c1b	0.10512563
23	0x3ea5b8ab	0.32367453
24	0x3e92bfc9	0.28661945
25	0x3e8380a1	0.25684074
26	0x3e9c757f	0.30558392
27	0x3e83bec5	0.25731483
28	0x3ea65933	0.3248993
29	0xbdf3ca47	-0.11903816
30	0xbe4bce08	-0.19902813
31	0x3f01fad8	0.5077338
32	0xbe6f7276	-0.23383507
33	0xbe802356	-0.2502696
34	0x3ecd6fbf	0.40124318
35	0xbe4a592e	-0.19760582
36	0x3eb05f35	0.34447637
37	0x3ed49092	0.41516548
38	0x3ee3ed99	0.4451721
39	0x3e80853e	0.25101656
40	0x3e9db912	0.3080526
41	0x3ef11ff1	0.47094682
42	0x3e9b3049	0.30310276
43	0x3e8a8c35	0.27060094
44	0x3ed95157	0.4244487
45	0x3e8ed91c	0.27900016
46	0x3eb3f048	0.35144258
47	0x3ee0eea1	0.4393206
48	0x3ec56d98	0.38560176
49	0xbd968683	-0.07349875
50	0xbea04434	-0.31302035
51	0xbeafd24f	-0.3434014
52	0x3ed130b9	0.40857485
53	0x3e3f83bb	0.18702595
54	0xbe54d217	-0.20783268
55	0xbe99a1c5	-0.30006233
56	0x3eda9c49	0.4269736
57	0xbdda5727	-0.10661154
58	0xbe875e8f	-0.2643933
59	0x3ec21b1d	0.3791131
60	0xbe4f80ec	-0.20264024
61	0x3ebdbf24	0.3705989
62	0x3eaeb869	0.3412507
63	0x3ebf3cdd	0.37351122
